model/Model2.pt (torch, 41853 bytes, 17 tensors)

weight f4 [32, 6]
00000000: 71e6 763e 9fab b7bd 7aef f0bd 7749 e2bd
00000010: 0509 3d3e 803e cb3e 9b88 cc3e 4d66 2abe
00000020: 574e 83be 8416 f93c 9d9b c6be 6ba1 2a3e
00000030: eb95 983d e438 c53d 32b0 823e 255d cd3e
00000040: 8e79 babe 93c9 9e3e 19e0 9e3e 508a 783d
00000050: b370 17be 855a a53e de91 c2bd 6e4c a5be
00000060: 1c0c 823e d62a 39be c466 93be df28 25bd
00000070: 3718 42bd 0462 583e 0245 eb3d effb 633e
00000080: 6b7d 29bc 0706 3d3d dcc1 90be b291 a5be
00000090: 7556 813b 148f 1fbe a79d 0f3e 05a5 04bd
000000a0: a58b ccbd 4f3e 863e 464f a1be 4ec3 d83e
000000b0: 91a9 443e 23df 75be 34d6 f73e c74d 683e
000000c0: 6d80 7f3e 7197 98be b920 fd3e 103f 98be
000000d0: 4f71 31be f8f5 683e 275b 363e a43b 53be
000000e0: 234e f0bb 34b0 b33e fc12 9bbe d9e4 c93d
000000f0: 4e45 873e 8421 21be cd3c 523e 1d0b 01be
00000100: 63d0 b53e 08a3 6e3e d4c8 793d 7151 cf3e
00000110: 3b98 08be 0573 15be 9469 81bd 5020 9ebe
00000120: 8d45 b23e d4b6 aa3e 651a 1ebe 60ef bd3e
00000130: 07f9 e2be 279f 413e 52c6 fb3e 47e1 183e
00000140: 5c97 2d3e f36d d2be bcb0 b43d ad0e c3bd
00000150: 6839 98be 2283 f23c d307 173e 4ae0 77be
00000160: 1603 4e3e 3a11 d53e 35cb b63d de93 913e
00000170: 664f fb3e a465 68be fbcd 6abe ccd5 d83e
00000180: 0b37 c93e 5488 393e f724 ddbe fcf6 dd3e
00000190: 83fe f73d cae0 41bd 0b19 d73e a55b cfbe
000001a0: c8b6 9d3d ebc0 72be d236 233e 34b8 633e
000001b0: 06d8 cd3e d6dc d23c 0107 a23e bd6b 893d
000001c0: 2658 943d 9b7a abbe adca d23e de81 0a3e
000001d0: 7648 06bd 1b7a 9dbd a9c9 50be 0c9d 673e
000001e0: 6431 afbe 754f d3bd 99cd 4abe 30e7 11be
000001f0: fd4f 8fbe 003d 9bbe 43cb 1b3e d49a 223e
00000200: fb3e 8cbe 8b51 213e 8b39 e0be e8da ed3e
00000210: c257 873e ab89 1d3e cb48 d23d 2b10 c13b
00000220: ab1d 02be 1d48 d8be c32e 163d fae7 7dbe
00000230: 29d4 c6bd 4683 113b 22e3 883e 3e61 493e
00000240: 5c21 04be 9eaa dfbe c7ff d23e 5e31 84be
00000250: 8606 d1bd 85e5 aebe f516 e2bd b63a e23e
00000260: 7064 1abd d045 e4bc 8147 9dbe 5fbd a8bd
00000270: a2bf a6be 9604 60bc 0c7e 09be 29ef eebd
00000280: ca17 d1be f3ab d73e e66c 003e 5388 d6be
00000290: 81e4 843e 9710 0ebe 032e 953e aafa 973e
000002a0: e985 a03e 965e 87be f0f5 b13e aedb 153e
000002b0: 2121 aebd ae7d 833e 21aa c13e 586a b5be
000002c0: e18f a13c 2f47 a33e f25c 7abe fef1 e4bd
000002d0: 7f39 36be 5b49 673d 362f 593e 9407 75be
000002e0: b3cc 6bbe 93ce e33e 1e83 bc3e c801 26be
000002f0: 2560 873c 73a0 803e 00fe 8abe 8186 d2be
0.24111344 -0.08968281 -0.117644265 -0.110491686 0.18460472 0.3969612 0.39947972 -0.16640587
-0.25645706 0.030406244 -0.387906 0.16663139 0.074504696 0.09629992 0.2552505 0.40110126
-0.36420864 0.31013164 0.31030348 0.06067878 -0.14789085 0.32295623 -0.09500478 -0.32284874
0.25399864 -0.18082747 -0.2878934 -0.04032218 -0.047386374 0.2113114 0.114877716 0.22264074
-0.010344843 0.046148326 -0.28272903 -0.3233772 0.003947074 -0.15581924 0.14024983 -0.032383937
-0.099875726 0.26219413 -0.31505793 0.42336506 0.1920531 -0.24010901 0.48405612 0.2268592
0.24951334 -0.2980304 0.49439028 -0.29735613 -0.1732838 0.2275008 0.1780821 -0.2062822
-0.0073335334 0.3509537 -0.3028792 0.09858102 0.26420063 -0.15735441 0.20531006 -0.12601896
0.3551055 0.23304379 0.06098254 0.40491822 -0.13339321 -0.14594658 -0.063189656 -0.30884027
0.34818688 0.33342612 -0.15439756 0.3709669 -0.44330618 0.18908368 0.49174744 0.14929686
0.1695227 -0.4109951 0.08822772 -0.095242836 -0.29731297 0.029603545 0.14749078 -0.24206653
0.20118365 0.41614705 0.089254774 0.28433126 0.49084014 -0.22695023 -0.22930138 0.42350614
0.39299807 0.18118411 -0.43192264 0.43352497 0.12109091 -0.047333516 0.42011294 -0.40499607
0.077008784 -0.23706405 0.15938881 0.22238237 0.40203875 0.025740068 0.3164597 0.067100026
0.072433755 -0.33491978 0.41170254 0.13526103 -0.032783948 -0.076893054 -0.20389427 0.22618502
-0.3421737 -0.103178896 -0.19804992 -0.14248347 -0.27990714 -0.30319977 0.15214257 0.15879375
-0.273918 0.15753762 -0.43793902 0.46456075 0.2643414 0.15384547 0.102677904 0.00589182
-0.1270663 -0.42242518 0.03666569 -0.24795523 -0.09708435 0.002220349 0.2673579 0.19666001
-0.1290335 -0.43684858 0.41210768 -0.25818914 -0.10206322 -0.34159485 -0.11039535 0.44185418
-0.03769344 -0.02786532 -0.30718616 -0.08239245 -0.3256808 -0.013672968 -0.1342699 -0.1166671
-0.40838462 0.42123374 0.12541541 -0.41900882 0.25955585 -0.13873516 0.29136667 0.2968343
0.31352165 -0.2643935 0.34757948 0.14634582 -0.085024126 0.25681823 0.3782511 -0.35432696
0.019721927 0.31890246 -0.24449518 -0.11178969 -0.1779537 0.05646644 0.21209416 -0.23928672
-0.23027305 0.4449354 0.36818784 -0.16211617 0.016525337 0.25122413 -0.27146912 -0.41118243

bias f4 [32]
00000000: 054b 84be 7fb1 b0be bea1 e63e a1ed 04be
00000010: eedb babd ecd4 7abd bee5 b53e e710 d2be
00000020: 1f1b 9dbe e860 293d 934f 69be fbfe b13e
00000030: 2448 6b3e 23ea 98be f69a c53e a294 163e
00000040: 3ae1 103d c554 8cbe 74af 123e 00a3 24be
00000050: 03c3 653e 0c6e c83e 42e8 d83e c889 be3d
00000060: 9dbc 763d 4d48 4ebe 6e1e 23be eb71 9f3e
00000070: 224b 8e3e e79c cf3e 9f3b f53d 1219 81be
-0.25838485 -0.3451042 0.45045274 -0.12981273 -0.091239795 -0.061238214 0.35526842 -0.4102852
-0.30684754 0.041352183 -0.22784261 0.34764847 0.22976738 -0.29866132 0.38594788 0.14705136
0.035371043 -0.27408424 0.14324743 -0.16077805 0.22437672 0.3914646 0.423647 0.093036234
0.06023847 -0.20144768 -0.15929577 0.311416 0.27791697 0.40549394 0.119742624 -0.2521444

weight f4 [32, 32]
00000000: c77b 723e 36e4 fe3d 987f 31bd 6fd0 0ebe
00000010: 9fb1 693e 609a 2cbe 8760 393e bed6 a73c
00000020: 0969 183e 0855 103e 9063 05bd 93bc 84bd
00000030: 118e 6e3e ec5f e7bc 173c 373e 9528 6e3e
00000040: 38a9 5abb d17a e73c cb3a 9d3d a9d4 693e
00000050: bbf9 da3c 244a 2c3c 541e 26be 68fe ff3d
00000060: e7f7 2b3d a359 0dbe 932d c03d 6a1d 223d
00000070: bc67 713e 4c95 9b3d 56db f1bc 3a66 4cbe
00000080: d8dd 743e fdfc 2dbd 7489 70bd 018b 0bbe
00000090: b364 453e 04cc 4bbe cc27 803e 9622 3abe
000000a0: 8b81 403e 6768 723e 74b3 19bd 15c8 f6bc
000000b0: ddfb d13d d193 5ebe c91f aa3d 5ff2 f0bc
000000c0: 058b ab3c d53d 313e edb4 57be dc9a 453e
000000d0: f6ef 30be 2e5a ee3d ed10 bcbd 9c64 19bd
000000e0: 4bf5 fbbd db50 09be 2b5b 213e f37c 783e
000000f0: f47c 2d3d 6fa8 a73d 3da1 673e 8271 44be
00000100: b915 3fbd aace d63d b602 22be a064 dd3d
00000110: 3e9b 23bc d7de f8bd c9bd ff3c 77b6 21be
00000120: acd1 01be 80cc 8b3d 7731 183e 9b0a cfbd
00000130: d6fd cb3b 522b c73c 18fa c13b 4ee3 1ebe
00000140: 5625 1d3c b271 1d3c 8dbf 9a3d 8555 083e
00000150: 96b7 103d e10c 44be eb5d 073e a6fa 543d
00000160: f004 973e 5599 86bd c752 77bd 951e dc3b
00000170: 78b3 0e3e c0dd e4bd b411 9d3d 57ad 1e3e
00000180: e0e4 eb3d fdc2 d3bd 3b56 d33d 04a6 dbbd
00000190: 5b63 e53d 4617 58be dbb8 ea3b 1c8d f1bd
000001a0: 6b06 6cbd ef04 1d3d 96c4 c3bd 6045 4cbe
000001b0: 0b41 50bd 1fe6 11bd 27c2 ad3d 2ca5 583e
000001c0: db5b 1c3d 489b 613e a42e cc3d 501a 303e
000001d0: 3d11 b83d dff6 34bd 6775 933c 15e1 6c3c
000001e0: 2438 ab3b e030 9f3c e177 97bd 716a ea3d
000001f0: eada 0fbd f60c 6e3e d371 31bd 6857 8bbd
00000200: a0c7 a0bd 54a0 f8bc 9087 d23c 8eb2 27be
00000210: 42b8 e33d 76e3 3fbe ac3b 2b3e 107c 40be
00000220: bfac 3abd 2abd 053e 5f8e fa3d e496 58be
00000230: 953d 123d a6ab 8abd 4ecb af3d 0a56 8c3d
00000240: 43fe 51be 24d7 343e c04f 8fbd edc8 493e
00000250: 1740 25be 1f41 523e b2cc b3bd 5749 ec3c
00000260: 7281 b93c 14c8 993c 7f47 c1bd 261d f73d
00000270: ff7a 77bd 284f f13d 4d3a 1fbb 82e1 0abe
00000280: a943 ac3d 602e b53d 1096 e33d bb3d 2fbe
00000290: 6268 d1bc 51e8 4bbe d4b0 be3d c85a cf3c
000002a0: 693a 113e 9434 7e3e 6930 613b e5d9 39be
000002b0: 7bfe f1bb 0e25 3bbe 5ed5 433e 5873 113d
000002c0: bb3a babd bf2e db3c ea87 babd 151e a5ba
000002d0: b7d6 fdbd 4b58 123e 07fb 953d f476 ad3b
000002e0: 1136 34be adf0 933c ff12 e83d 897b 9abd
000002f0: e307 a53d 6734 be3d ab26 2fbd a88a 693d
00000300: 0aa4 3c3d 0e54 013e 34ec 0e3d 8d28 44bc
00000310: 97a2 b7bd 8f57 2cbe cac8 e13d 5848 6cbe
00000320: 3957 bebd 87c8 de3c 7af6 9ebd 683d 53bd
00000330: 5996 563e 879b b83d 3d9c c7bd d52c 793d
00000340: 1e27 71be 8431 b93d 9aca 0b3c 1fbc e83d
00000350: abc2 8dbd dd8f b83d 3019 1dbe faf8 893d
00000360: e682 5bbe 643c 0dbe 8b19 063e 7313 533e
00000370: 267d 7e3c cf35 5e3d 1893 08bd 086d 73bd
00000380: 32a1 303e 23de 043e 4d16 843e 4198 8abd
00000390: 700a 32bd 1ac1 853d 264f 273e b774 a3bc
000003a0: f1b1 5b3e c459 d53c 5d39 4cbd a5f8 5cbe
000003b0: 141f 013e 7baa ec3c 6e10 31bd f7a7 853e
000003c0: 2094 2abe c074 ea3d 748c 92bd b9b8 d9bc
000003d0: a5ea af3d ee40 7f3e 0b81 7bbe 82ae 873d
000003e0: 1d45 b3bd abe6 1bbe b799 543e 2783 723e
000003f0: c815 803e 7319 2abc 18fa 4f3e 999a 7cbd
0.2368003 0.124458715 -0.043334574 -0.13946699 0.22821663 -0.16855764 0.18103229 0.02048814
0.14883818 0.14094937 -0.032565653 -0.0648128 0.23296382 -0.028243981 0.17894016 0.23257668
-0.0033365022 0.028256806 0.076772295 0.2283503 0.026730409 0.010515723 -0.16222507 0.12499696
0.041984465 -0.13803725 0.093836926 0.039578833 0.23574728 0.075968355 -0.029523533 -0.19960871
0.23912752 -0.042477597 -0.058724836 -0.13627245 0.19276695 -0.19902045 0.25030363 -0.18177256
0.18799417 0.23672639 -0.037524655 -0.030124703 0.10253117 -0.21736075 0.08306844 -0.029412447
0.020940313 0.17308743 -0.21065111 0.19297355 -0.17279038 0.11638294 -0.09182916 -0.037449464
-0.12302645 -0.1340975 0.15757434 0.24266414 0.042355493 0.08186423 0.22620101 -0.19183925
-0.046651576 0.10488637 -0.15821347 0.10810208 -0.009985743 -0.12151878 0.031218426 -0.15792261
-0.1267764 0.06826115 0.1486262 -0.10109445 0.006225328 0.024312649 0.005919706 -0.15516397
0.009591421 0.009609627 0.07556067 0.13313873 0.03533133 -0.19145538 0.1321942 0.05199685
0.29495955 -0.065722145 -0.060381677 0.006717513 0.1393565 -0.11175108 0.07669392 0.15495811
0.11518264 -0.103399254 0.103191815 -0.10725024 0.11200591 -0.21102628 0.00716315 -0.117944926
-0.05762331 0.038334783 -0.0955898 -0.1994834 -0.05084328 -0.03561985 0.08484297 0.21156758
0.038173538 0.22031891 0.099698335 0.17197537 0.08987663 -0.044180747 0.018000318 0.014457961
0.0052251983 0.019432485 -0.07395912 0.11446083 -0.035120882 0.23247132 -0.04332144 -0.06803781
-0.078505754 -0.030349888 0.025699407 -0.16376707 0.11119129 -0.18739113 0.16721982 -0.18797326
-0.0455749 0.13060442 0.122341864 -0.2115131 0.03570326 -0.067710206 0.08583699 0.06852348
-0.2050715 0.17660195 -0.06997633 0.19705553 -0.1613773 0.20532654 -0.08779277 0.028843565
0.022644732 0.018772162 -0.09437465 0.120661065 -0.060420033 0.11782676 -0.0024296225 -0.13562587
0.08411343 0.08846736 0.111126065 -0.17113392 -0.025562469 -0.1991284 0.09311071 0.025311843
0.14182438 0.24824744 0.003436113 -0.18149526 -0.0073850728 -0.18275854 0.19124362 0.03551039
-0.09093233 0.026755689 -0.09107955 -0.0012597466 -0.12394469 0.14291494 0.0732327 0.0052937213
-0.1759875 0.0180591 0.11331748 -0.07543094 0.08058145 0.09287339 -0.042761486 0.057017
0.046054877 0.1262972 0.03489323 -0.011972559 -0.089665584 -0.16830276 0.110246256 -0.23074472
-0.0929398 0.027195228 -0.077618554 -0.051572233 0.2095579 0.090140395 -0.09746597 0.06083377
-0.23550078 0.090426475 0.008532191 0.11364006 -0.069218956 0.09011815 -0.1534164 0.06736942
-0.21436653 -0.13792568 0.13095681 0.20612888 0.015532767 0.054250535 -0.033343405 -0.059430152
0.17248991 0.12975363 0.25798264 -0.067673214 -0.043466985 0.06530972 0.16338786 -0.019953115
0.21454598 0.02604378 -0.049859393 -0.21579225 0.12609512 0.028889885 -0.04322856 0.2610471
-0.16658068 0.114480495 -0.071556956 -0.02657734 0.08589677 0.24927112 -0.24560945 0.066250816
-0.08753417 -0.15224712 0.20761763 0.23682843 0.25016618 -0.010382044 0.20310247 -0.061670873

bias f4 [32]
00000000: 7937 15bc 15df 89bd dfdf 02be cb65 c53d
00000010: c610 15bd 24d4 f33d 29b3 453d 93e8 6f3d
00000020: c1fd 803e ab05 3c3e 4389 07bd fe49 d63d
00000030: 442e 06ba a4ac 093e a395 92bd c936 a13c
00000040: f489 ccbd 0b28 d6bd cea0 63be 4755 903c
00000050: 7d2e cebc ede7 dbbd db46 5a3e a00f 0bbd
00000060: 271f f23b 5c64 313d 7573 733d 9375 043d
00000070: db31 88bd e385 b13c eb15 7a3d 9de1 7b3c
-0.009107464 -0.06732003 -0.12780713 0.09638556 -0.03639295 0.11905697 0.048266564 0.05857141
0.251936 0.18361537 -0.033089887 0.10463332 -0.00051185885 0.13444763 -0.07157447 0.019679444
-0.0998725 -0.10456856 -0.22229311 0.017618788 -0.025168652 -0.10737596 0.21316092 -0.033950448
0.0073889676 0.0433086 0.05943628 0.03233869 -0.06650134 0.021670287 0.06105606 0.015373615

weight f4 [32, 32]
00000000: 7e1b a4bd c318 493d 10af 113e a481 8d3d
00000010: 12ab 5bbd 15e1 ea3c 7474 bcbd 42d0 11be
00000020: 5600 7a3d b230 debd 09d8 8ebd 3138 4b3c
00000030: 61a8 1f3e 8236 233e a393 d2bd aa05 a0bc
00000040: 282e e5bd 1348 603b 454f 6abe 08a2 00be
00000050: 6c65 21be 6d89 393d 4b51 863b 5fb4 e13d
00000060: dca6 afbd 3e9a 78bc 921b 1ebe 5486 1abe
00000070: 0ef1 80bd 4feb f2bd b067 133e 0547 c2bd
00000080: 8d60 7a3c 35df 113e 4633 57be 5aab c03d
00000090: b240 b7bd bbdc 083e d11e f63a 1876 a13d
000000a0: 1672 e3bc c01b 26be 87fc 15be 48ab 733d
000000b0: e107 2b3c 4e59 32be b3fb 2cbd aaab 673e
000000c0: 4ce2 763e 01d2 5ebe af62 363c 981a 653e
000000d0: 6c57 a3bc 3600 99bd 3a6a a2bd 6463 3ebe
000000e0: 1159 a13d 1840 343c 3a1e e93d a622 533e
000000f0: 492d 793c 6037 f93d 315c 6cbe 7ba2 7cbe
00000100: 006b 58be ffa3 c13b 9c5c 2a3e d1bb fb3d
00000110: 6d8d 50bd 1bdd 6cbd 36b8 c0bd 89cd ec3c
00000120: 00d8 2abe 564c 253e b4bf 7ebd afcd 8bbd
00000130: 0e24 47be 7bd9 f5bd 483f 113e efe7 b43d
00000140: a08a 83bc 9b0e ea3d b1f0 a3bd 65a1 c23c
00000150: 140a 4dbe 15b8 023e 0cf1 0b3e 35f1 69bd
00000160: ba68 243e 4de1 3e3e eacd 98bd bfbe b5bd
00000170: cc3f 77bd 1898 0dbe 3019 acbc 0055 463d
00000180: 2a4c 303e 6411 0f3d 7437 94bb f5cc c8bd
00000190: e746 4e3e fb60 6b3e 0c20 9f3d c3a9 a33d
000001a0: a954 ff3d 45ee 30be 754f 40be d5fc 76ba
000001b0: 5308 e33d b0e1 48be f6c9 39be 9ec0 2f3d
000001c0: 2fb9 533d 0238 14be 9022 1bbe 9dba 243e
000001d0: 68f8 1c3c d622 1c3d c339 ffbd d154 9b3d
000001e0: b651 86bd af87 5cbe a361 003e b408 85bd
000001f0: 7626 69bd 99ad d33d e376 68be 00f5 fcbb
00000200: 2ffa f53d 6191 803d 6132 e6bd 84c5 743d
00000210: e31a 133d 18c2 41bd cf8f 25bd 53ff 263e
00000220: 0f7d 053e 0ed3 793d bf74 6abe 27af 72be
00000230: 7fe7 77bd c715 8f3c f74a aabc 6f95 0f3e
00000240: bc8c dfbd 422d 15bd ac97 8b3d 116a 77bd
00000250: b25d 9cbd 4e02 d53d f268 703e 0579 4d3b
00000260: a9e3 6fbc 205b 7dbe 620d 3d3e 56ca 6cbc
00000270: 2377 463e 4e1f 083b 6863 96bc e16a 1cbb
00000280: c05b 583e 4022 6e3e 4791 22be 33a4 cc3d
00000290: e254 84bc 08c3 9b3d fb48 cc3d 15ec 223e
000002a0: 452e 7d3e 2d1e 5bbe 9f55 12bd 1afd 4abe
000002b0: ecf6 16bd 90f2 18be 3dc5 46be a232 bdbc
000002c0: e350 2cbd 0798 49be eecf e8bd aca6 d9bb
000002d0: 9d46 9bbd 052b 53be 75f3 f03d 0fe9 22be
000002e0: 25a9 ffbb beeb b1bd 7f43 d1bd 77fe 0a3e
000002f0: c606 1d3e cc5d fd3d 1dc6 b03c 4fb0 88bd
00000300: 20f3 34be e762 8dbd e1ab 073e 103a da3d
00000310: 9a7a 26be e8dd 0e3e fe64 d9bc 2cde 253d
00000320: 83a8 aabd 6720 143e 877e 153e f112 babd
00000330: 0c5a b6bd cecc fc3d c9eb 89bd 933e 14be
00000340: d99d 90bd da7c 333e 5cc1 bb3c e4aa 023e
00000350: 5292 48be d5d9 19be 940f b9bd 0af4 2abd
00000360: 7230 5c3e bd19 ad3d cd6f aa3d a0a0 efbd
00000370: 131d 53bd 08b2 30bd 1e4c 363e 3499 a13d
00000380: df7d 383e 520f 643e 76e2 713c 3fd9 1b3e
00000390: 3e91 e23a 58d9 323e cdcd b8bd 0f1d 123e
000003a0: 7a93 1c3e 5c5a 42be 39b0 c73d 2375 7cbe
000003b0: 68a0 523e f2d1 11be bf52 223c 7ec5 e73d
000003c0: ea8d ceba d608 20be 7bf6 80bd 5c44 f83d
000003d0: 5680 743d a5e5 45be 33e2 ef3c 3480 5fbe
000003e0: bfa2 30be be5c 74be 2aec 9a3d 33c7 753d
000003f0: e2f9 1e3e d6c1 813d 46c4 47be 6c03 d33c
-0.08013056 0.04909588 0.14226937 0.069094926 -0.053629942 0.02867178 -0.09201899 -0.142396
0.061035477 -0.10849132 -0.06974799 0.012403534 0.15591575 0.15938762 -0.10282066 -0.01953395
-0.11190444 0.0034222647 -0.22881801 -0.1256181 -0.15761346 0.045297075 0.0040990463 0.11020731
-0.08576748 -0.015173493 -0.15440205 -0.15090305 -0.062959775 -0.11861288 0.14395022 -0.09486202
0.015281809 0.14245303 -0.21015653 0.09407683 -0.089478865 0.13365452 0.0018777495 0.07883853
-0.027764361 -0.16221523 -0.14647113 0.05948952 0.01043889 -0.1741688 -0.042232227 0.22624078
0.24109763 -0.21759798 0.011131926 0.22373426 -0.019939147 -0.07470743 -0.07930417 -0.18592602
0.07878316 0.011001609 0.113827184 0.20618686 0.015208551 0.12168765 -0.23082043 -0.24671356
-0.21134567 0.0059094424 0.1663689 0.122916825 -0.050916124 -0.05782805 -0.094101354 0.0289066
-0.1668396 0.16142401 -0.06219454 -0.068263404 -0.19447348 -0.12004372 0.14184296 0.088333
-0.016057312 0.11428567 -0.080048926 0.0237586 -0.20023376 0.12765534 0.13666171 -0.0571148
0.16055575 0.18640633 -0.0746115 -0.088742726 -0.060363576 -0.1382755 -0.021008104 0.048420906
0.17216554 0.034928694 -0.004523212 -0.098047175 0.20144235 0.22986214 0.07769784 0.07991364
0.124673195 -0.17278393 -0.1878031 -0.000942183 0.11085572 -0.19617343 -0.18143448 0.042908303
0.051690277 -0.1447449 -0.15149903 0.16086812 0.009580709 0.03811916 -0.12462189 0.07584537
-0.06558554 -0.21536134 0.12537245 -0.064958006 -0.056921445 0.103358455 -0.22701602 -0.007719636
0.12010609 0.06277729 -0.11240078 0.059758678 0.035914313 -0.047304243 -0.04042035 0.16308336
0.13035987 0.060992293 -0.22896098 -0.23699628 -0.060523506 0.017466439 -0.0207877 0.14021848
-0.10915515 -0.036420114 0.068160385 -0.060403887 -0.076350585 0.1040083 0.23477533 0.003135265
-0.014641681 -0.24741793 0.18462136 -0.0144525375 0.19381385 0.0020770612 -0.018357947 -0.0023867416
0.2112875 0.23255253 -0.15875731 0.09992256 -0.016153757 0.07605559 0.099748574 0.1591037
0.24724682 -0.2139823 -0.035726186 -0.19823113 -0.036856577 -0.1493628 -0.19411178 -0.023095433
-0.042069327 -0.196869 -0.113677844 -0.0066421833 -0.07581828 -0.2062188 0.11765186 -0.15909217
-0.007802146 -0.086875424 -0.10217952 0.13573633 0.15334615 0.12371406 0.021578843 -0.06674253
-0.1767087 -0.0690363 0.1324916 0.10655606 -0.16257706 0.13951838 -0.026537415 0.040495083
-0.08332922 0.14465486 0.14599048 -0.09085644 -0.08903894 0.12343751 -0.067344256 -0.14476995
-0.07061357 0.17528096 0.02291935 0.12760502 -0.19587067 -0.15024503 -0.090361744 -0.04173664
0.21502855 0.08452175 0.083221056 -0.11700559 -0.0515414 -0.043138534 0.17802474 0.07890549
0.18016766 0.22271469 0.014763465 0.15219592 0.0017285717 0.17465723 -0.090236284 0.14268897
0.15290633 -0.18979782 0.09750409 -0.24654059 0.20569003 -0.14240244 0.0099074235 0.113169655
-0.0015758846 -0.1562837 -0.062970124 0.121224135 0.059692703 -0.19325884 0.029282665 -0.2182625
-0.17249583 -0.23863503 0.07564576 0.060004424 0.1552501 0.063357994 -0.19508466 0.025758468

bias f4 [32]
00000000: 2ec7 96bd 8cb7 86bc 6b6e ec3d b7a1 7c3e
00000010: 9c15 143e 1888 253d 22f4 923d 699d 7d3b
00000020: 7708 003e b541 c93d 0003 4abd 439c 0b3e
00000030: 4475 ca3d b774 0dbe dd8d 743c 6447 abbc
00000040: ffba 86bd c109 1fbe 242b fabc 5e83 e23d
00000050: aaa6 8dbd c07d 323e 06a4 d0bd c25c 18bd
00000060: 326f c83d 7a51 453e 52a1 173e 2449 33be
00000070: 3993 0e3e 1bc9 ba3d 057b d33d d7fb 32bd
-0.07362209 -0.016444944 0.11544498 0.24671064 0.14461368 0.040412992 0.07175471 0.003869856
0.12503229 0.09826986 -0.049319267 0.13633828 0.09885648 -0.13814054 0.014926401 -0.020908065
-0.065786354 -0.15531065 -0.03053815 0.110602126 -0.06916554 0.17430782 -0.10187535 -0.037197836
0.09786834 0.19269362 0.14807633 -0.1750837 0.13923348 0.09120389 0.103261985 -0.043697204

weight f4 [32, 32]
00000000: 96cb 34bd 7d42 a9bc 667e 8f3d ff7d f0bd
00000010: 63d2 59bd 6f56 ca3d 5474 56bd 7306 62bd
00000020: 3c0c a9bc 6364 923d 3552 fe3d 670f 5dbd
00000030: d754 ae3c 87e8 eebd 4d1e 06be 10ad 1ebe
00000040: 0786 d83d 37a7 debc 1496 54bc 48a0 b4bb
00000050: ccd7 45be d681 debd a8de c4bc 2f18 953c
00000060: 74d4 20be 232b 7d3d 159e 3c3e d163 cabd
00000070: 99c6 64bd 3f5c 2cbd e19a fbbd 2fd2 e83d
00000080: 7f09 bbbc 8edf 1bbd 0600 d4bc a7cd c0bd
00000090: cac5 b7bb a08d 5ebd 2fa2 17be fb16 f23c
000000a0: 4e5e acbd 4259 8c38 a36d 5f3d e8bb 0ebe
000000b0: 3af0 9ebd 699b 0ebe f9f9 08bd 9fa5 1cbe
000000c0: 1065 ccbd 13c1 763c e3d2 f8bd a6a6 30bd
000000d0: e8bf 5d3d 401c cbbd a566 2b3e 2c69 98bd
000000e0: 3425 35be 3b9c d8bd 0831 a63d 6b01 3cbe
000000f0: 0e5b 0bbe f1be 1bbe 4028 1ebd 49ef 2ebd
00000100: 1f80 0e3d c29b b5bd 0513 0cbe 72ab b93d
00000110: 207e f1bc e8e6 c93d 387c f0bc 27d0 193d
00000120: 2c6c 693e 3756 a8bd a4b0 0dbd 0897 41bd
00000130: f312 093e c963 cabd 6848 24be 4f7a 213e
00000140: 4ba5 503e 8d8d 943d 67cf a73d 77ed 8a3d
00000150: c8a2 3abd 9c56 70bd 11c3 233e 60ee 3f3e
00000160: 4e22 6dbe 40e3 10be bad6 c03d 7e9e 253e
00000170: ea6b 5f3d fad0 533e 5d08 fdbd 4285 ea3d
00000180: 5294 66be dc6b 8dbd 7d40 b6bd 5cf7 723c
00000190: b8b4 82bd 5701 623e ab11 333d e8fc 7e3e
000001a0: 9fc3 69be 14fa 563e 3239 6d3c 61be 51bd
000001b0: 9911 1ebe 282a 8fbd 4613 abbd 5d63 48be
000001c0: 8a78 f2bd 9320 ee3c 4733 513e e579 97bd
000001d0: edee 453e f8e3 463e a5c2 0dbe 8fbd 8b3d
000001e0: 410c a63d 3129 f53d aff0 7abe c891 83bc
000001f0: f487 ba3c 44d4 d03c 71ae 02be 639a 533d
00000200: cfc2 09be 4cb2 5aba cd90 f5bd b502 d0bc
00000210: 6bb5 c5bd aef0 bebb 6860 023e 50b4 3cbe
00000220: 1618 483e 5714 783c 0074 38be 7af6 c7bd
00000230: bec5 c73d 7a3c 9e3d 5920 abbd f74c d73d
00000240: 952e ec3c 5314 8bbd dee3 823d 839e c43d
00000250: 30fb 5d3b 56f3 7f3d 1c64 a7bd 5086 b8bd
00000260: 3e20 00be 1e7b 41be 75ed febc a215 17bd
00000270: ff18 f63d 2dc5 81bc 623f 03bb 1454 363e
00000280: 2b6f 9fbd a7cc e3bd bf1e 0c3d ba08 053e
00000290: b6cf 0bbe 580a 44be b873 41bd e3d9 11be
000002a0: c824 033d c1fa 14be fa1a 2cbe 7a7e adbd
000002b0: ad1b 4abb 6ecc 2fbe f3a6 7b3d 24a5 ce3d
000002c0: 45f9 0a3e df2c 193e d49b c73d 86d1 303e
000002d0: 6c7b fabd 7d66 eebc 9901 11be 6169 313d
000002e0: 2bb5 913d 61ec cfbd 5780 d8bd 85a7 2b3b
000002f0: 77be a93d 9427 513d 683b f0bc 0948 2abd
00000300: feaf 9fbd f39a d93d 83a1 8abd ee2e 7a3e
00000310: 2855 a53d edb3 6c3e 86cf 4fbe b644 e4bc
00000320: f491 e13c d355 b0bd 0cfd 0abd 6454 e6bd
00000330: 6483 563d 9185 fcbd cabd 3a3d fbdd c3bc
00000340: a86c 1fbe 7ed8 413c df77 5e3e 71a2 cdbd
00000350: e969 633e 4184 313e f628 38be ecec b43c
00000360: 2688 f13c bafc 763e fed8 a8bb 16c5 82be
00000370: a895 7cbd 0bd2 34bd d5df a73d ae2b 71bd
00000380: f3e8 f63c fadc 913d 7792 3abe d405 6c3e
00000390: 339e 0a3e afc8 a23d e1f3 4d3d b553 633e
000003a0: a61a 48be 185b cb3d ad58 f2bd 8c89 06be
000003b0: 6093 88bc d4f8 31be 8689 843d 3922 6fbe
000003c0: 558e 34be 197a aa3d 7980 f03d 31bb 77bd
000003d0: 2efe 693e f763 c33c 1b5e 22bc e34a 2bbe
000003e0: 3794 e13d af37 f7bc b337 fdbd f26b cf3c
000003f0: 9f18 633e 77ed 543d a770 31be 96f6 3abe
-0.044139467 -0.020661587 0.070065305 -0.11742782 -0.053179156 0.09879767 -0.052357033 -0.05518193
-0.020635717 0.071480535 0.124180235 -0.053969767 0.02128069 -0.11665445 -0.13097496 -0.15495706
0.10572439 -0.027179344 -0.012975235 -0.005512271 -0.19320601 -0.10864608 -0.024031952 0.018200008
-0.15706044 0.061808717 0.18419679 -0.0988232 -0.05585346 -0.04208016 -0.122854 0.11368214
-0.022831677 -0.038054995 -0.025878917 -0.09414225 -0.005608295 -0.054334283 -0.14807962 0.029551974
-0.08416425 6.692346e-05 0.054547917 -0.13938868 -0.07760663 -0.13926472 -0.033441518 -0.15297554
-0.09980214 0.015060681 -0.121495984 -0.04312768 0.054138094 -0.09917498 0.16738375 -0.07441935
-0.17689973 -0.105766736 0.08114821 -0.18359916 -0.13608953 -0.15209557 -0.038612604 -0.04270867
0.034790155 -0.08867599 -0.1367913 0.09065904 -0.029479086 0.09858495 -0.029356107 0.037552025
0.2279517 -0.08219569 -0.034592286 -0.047263175 0.13386135 -0.09882314 -0.16043246 0.15769313
0.20375554 0.07253561 0.08193856 0.06783574 -0.045565397 -0.058676347 0.1599238 0.18743277
-0.23157617 -0.14149189 0.09415956 0.16173741 0.054546274 0.20685187 -0.12355111 0.11451198
-0.22517517 -0.06905338 -0.08899019 0.014829483 -0.063821256 0.22070824 0.04371802 0.24901164
-0.2282853 0.20993835 0.014478968 -0.05120695 -0.154364 -0.069904625 -0.083532855 -0.19569154
-0.11839397 0.029068267 0.20429717 -0.073962964 0.19329424 0.194229 -0.13843782 0.06823265
0.08107806 0.11970747 -0.24505876 -0.016060725 0.022769906 0.025491841 -0.12761857 0.051660907
-0.1345322 -0.00083426083 -0.11990509 -0.025391916 -0.09653743 -0.005827031 0.12732089 -0.18428159
0.19540438 0.015141568 -0.18013 -0.097638085 0.09754513 0.07726379 -0.08355779 0.10512727
0.028830806 -0.06790986 0.063911185 0.09600546 0.0033871643 0.062487923 -0.08173391 -0.09009993
-0.125123 -0.18894622 -0.031119088 -0.036885865 0.120164864 -0.015841091 -0.0020026793 0.17805511
-0.077848755 -0.11123019 0.03420901 0.1299161 -0.13653454 -0.19144571 -0.0472295 -0.14243273
0.0320175 -0.1454878 -0.16807166 -0.08471389 -0.003083925 -0.17167827 0.061438512 0.10090092
0.13571651 0.14958523 0.09746519 0.17267427 -0.12230572 -0.029101605 -0.14160766 0.043313388
0.07114633 -0.101525076 -0.10571354 0.0026192379 0.082882814 0.051063135 -0.029325202 -0.041572604
-0.0779724 0.10625257 -0.06769087 0.24431965 0.08072883 0.23115511 -0.20294008 -0.027864795
0.027535416 -0.0861012 -0.03393273 -0.11246565 0.052371398 -0.12330163 0.045591153 -0.02390956
-0.15568793 0.011831401 0.21725415 -0.10040749 0.2220837 0.17335607 -0.17984375 0.02208563
0.029483866 0.24119845 -0.0051528206 -0.2554099 -0.06166616 -0.044145625 0.081969894 -0.058879547
0.030140376 0.07122226 -0.18219934 0.23049098 0.1353691 0.079484336 0.05028141 0.221999
-0.19541416 0.09929484 -0.1183332 -0.13138407 -0.016671836 -0.17380077 0.06471543 -0.23352899
-0.1763242 0.083240695 0.11743254 -0.060481254 0.22850868 0.023851378 -0.009910132 -0.16727786
0.11014598 -0.03017792 -0.123641394 0.025320027 0.22177361 0.051984277 -0.1732813 -0.18258128

bias f4 [32]
00000000: b254 e6bb 2716 fa3d 2f7c bdbd 4c2e 763e
00000010: 9663 fabd 079c 163e b204 023c 1f95 dc3d
00000020: 86da 483e 57b4 0ebe fed0 6f3e 2cf2 37bb
00000030: 34d0 eb3c 3146 053d c64e 0cbd e997 c0bd
00000040: f010 12be ab2e 833e 88b9 fcbd c13d e1bd
00000050: f20b a53d 11f7 493c 9387 0b3e 8274 2c3e
00000060: 260a 263e b026 313e a2c7 063e 8735 24bd
00000070: ff5e 27be 90b9 2b3e f40a 443e b6e4 be3d
-0.0070291394 0.122112565 -0.09252202 0.24041098 -0.12226026 0.14707957 0.00793569 0.1077063
0.1961461 -0.13935982 0.23419568 -0.002806793 0.028785802 0.032537643 -0.03425481 -0.094039746
-0.14264274 0.25621542 -0.12340075 -0.10998107 0.08058919 0.012326972 0.13625936 0.16841319
0.16214809 0.17299914 0.13162091 -0.04009011 -0.16344832 0.16770005 0.19144803 0.09320967

weight f4 [32, 32]
00000000: 6475 e13d eb27 a13d 3780 06be ccbc 3e3e
00000010: 5769 01be 1e02 d2bd 0fff 3d3e 042a 2c3e
00000020: aa25 debd 7522 12be d10b 563e d949 56bc
00000030: 5b13 353d 6286 1ebe e531 20be 7ef4 053d
00000040: 3f43 e43d 6745 863d 9ddc bc3d 2829 9e3d
00000050: 9605 f33c 11fb 0cbe 5b40 593e e5e6 083e
00000060: 6933 57bd e526 d03d 1a34 e63d ddd8 e0bd
00000070: 2aaa a63d 92ca b6bd 6011 08bb 4a1f dbbd
00000080: ac6f 65bd e946 b4bd 3d0a 203e f583 13be
00000090: 893e a7bd 7454 f43b 6ad0 cb3c ee7f 3a3d
000000a0: 95f6 573e e863 1abd beaf 953d d91d f93c
000000b0: 3dc2 1d3d 9112 193e 83e1 c43d 5723 523e
000000c0: 03a6 523e a063 89bd 844a 1d3e 1c31 73bd
000000d0: 628d f53d cc7c 013e 25f3 e33d 7533 1fbe
000000e0: 3973 b33d 58d5 063b ec07 2cbe cca5 14be
000000f0: ca0e b7bd f289 513d a99c 723d a3ca cc3c
00000100: 4f7e a03d 3f6a 60be 15d5 fdbb 30c7 fbbc
00000110: 8e27 ed3d 662c 5cbd 480a 86bd 7ac9 ca3d
00000120: 9df2 e23c 4883 593d e816 25be 1e3b a7bd
00000130: 1171 97bd c8c9 0ebd 10ec 05be c748 aa3d
00000140: 5c61 2d3e 7629 da3c 37a9 21be 8240 073e
00000150: b84b 7fbd e42d bfbd 32ad b4bd c7c6 2dbd
00000160: 608a e83d 840f b1bc 2234 eebc 792f 2bbc
00000170: 8539 743d d3c6 81be d84e 61bd 4c53 0f3c
00000180: 965b 39bd d3f0 35be 3c08 56bd fc82 6f3e
00000190: cf7f 4ebd d22f b03d 49df ecbb bd7c c2bd
000001a0: 4417 a5bc fecf a1bd bcc7 983c b12a 193e
000001b0: d40d 473e 6d09 b6bd 755a 30be 71a5 b33d
000001c0: c034 00be b237 ce3d babc 14be b217 75bd
000001d0: fd87 293e b662 393d 4f8c e8bd 05ee ed3b
000001e0: 7dc2 42be 1253 133d d957 c93c 8a36 1b3e
000001f0: 0607 0dbe 05fa 0a3e b99b 0c3e 2f5e 47be
00000200: d151 8b3d 32a0 733c c339 30be cf46 9ebd
00000210: 01c6 9a3c b6c0 cd3d bf3d 2dbe 3d58 27be
00000220: 5af5 4dbe c131 31bd 7eeb 413c 8482 a5bc
00000230: 195c fbbd aeb2 0f3d 8e1d 193c a4e6 533d
00000240: 29c5 2e3e 1ccc 2fbe b1e6 ec3c 07f7 07be
00000250: 9d4c fabc fd5d 23bc c4e3 99bc c37c 92ba
00000260: 4a84 2bbe d569 133e 0283 1e3e debb 5abc
00000270: cc4e b7bd 3315 04be dfa9 093e 689c 37be
00000280: 096b 79be 9794 9e3d 1052 73be 070e de3a
00000290: 273e 5fbd c5f5 73ba f244 3d3e bb1f 093e
000002a0: 37cf 77bb cc81 d93c 9c2e 283e 5ef4 8cbd
000002b0: 2599 e3bd d3b1 5abd 8ab4 7e3d c106 7dbe
000002c0: 1aac 9e3d 7c78 253e 667d 58be c88c 113c
000002d0: 1cf3 4f3e 4f83 33be 8f48 41bd c541 cc3c
000002e0: 9ddc 763c c772 053e 81b5 383d 2d10 6e3c
000002f0: 69fc 62be 25b7 1e3d 0897 0b3e b2b9 9b3d
00000300: ea38 5bbd 57bc ad3d 52ba eebd b091 bd3d
00000310: 2fd9 08be 2b7d 27be 4473 4d3e 6b98 fc3d
00000320: 8a80 833d 2443 28bb f866 89bd e2cc 273e
00000330: c5a1 413d 6516 09be c8a3 12be 3cbe 2fbe
00000340: 6f47 973d 2b6f ed3d 0187 c6bc 2e06 903d
00000350: efd9 06be 5db2 47bd 90d3 b3bd 6327 c53d
00000360: 477f 0c3d 2344 b8bd fc23 0f3e 8ee6 e63d
00000370: 5f0e e4ba 32ee efbc db38 0d3e d70e 483c
00000380: 6486 b6bd 66bb 55be 1bca c8bd 3fc0 e43c
00000390: 62f0 213e c87c b7bc 1ddd 72bd 2776 6e3c
000003a0: 1f8b 2f3b 5db2 16bd ae37 cfbc 0183 13be
000003b0: 99b0 9e3d 04eb b13d 4e4d d83d 7346 1b3e
000003c0: d388 ce3d d44a 62bc a7c3 b43d d776 cc3d
000003d0: 91fb 2bbe 9c9f f0bd 18d8 f83c e986 b2bd
000003e0: 52f8 37be b69e 10be fabb 81bd d2ec ed3d
000003f0: ff37 563c 7fdd 55be 5f64 edbc fe7a 43be
0.110087186 0.07868942 -0.13134848 0.18626708 -0.1263784 -0.1025431 0.18554328 0.16812903
-0.108470276 -0.14270957 0.20902945 -0.01307913 0.044207912 -0.1548095 -0.15644033 0.03270387
0.11145639 0.06556206 0.09221766 0.07722694 0.02966575 -0.13767649 0.21215956 0.1336933
-0.052539263 0.101636685 0.11240406 -0.109788634 0.08137925 -0.08925356 -0.002076231 -0.10699327
-0.0560147 -0.088025875 0.15628906 -0.14405806 -0.081662245 0.0074563567 0.024879653 0.04553216
0.21090157 -0.037692934 0.07308911 0.03040974 0.03851532 0.14948489 0.096133254 0.20521294
0.20571141 -0.06708455 0.15360457 -0.059373006 0.11989857 0.12645262 0.111303605 -0.15546973
0.08762211 0.002057394 -0.16799897 -0.14516371 -0.08938368 0.051156946 0.059231434 0.024998968
0.078365915 -0.2191553 -0.0077463486 -0.030734628 0.1157981 -0.05375328 -0.0654493 0.0990171
0.027703578 0.053103715 -0.1612202 -0.081655726 -0.073946126 -0.034860402 -0.13078332 0.083146624
0.16931671 0.026631098 -0.15787207 0.13208202 -0.06232807 -0.09334925 -0.08822097 -0.042425897
0.11354518 -0.021613844 -0.029077593 -0.01044833 0.059625167 -0.25347003 -0.055006832 0.008747887
-0.04525336 -0.17767648 -0.052253947 0.2338981 -0.050414857 0.08602871 -0.007228766 -0.09496448
-0.020152695 -0.079009995 0.018649928 0.14957692 0.19438869 -0.088885166 -0.17222007 0.0877179
-0.12520123 0.10069217 -0.14525118 -0.05983705 0.16555782 0.045260154 -0.11354887 0.00726104
-0.19019504 0.035967894 0.024578022 0.15157524 -0.1377221 0.13571937 0.13731278 -0.19469522
0.068027146 0.0148697365 -0.17209534 -0.077283494 0.018893244 0.10046522 -0.16918086 -0.16342254
-0.20113125 -0.04326034 0.011835931 -0.020203836 -0.122734256 0.03508251 0.009345425 0.051733628
0.17067398 -0.17167705 0.028918596 -0.13277827 -0.03055411 -0.009971139 -0.018785365 -0.0011176098
-0.16749683 0.1439584 0.15479663 -0.013350455 -0.08950576 -0.12898712 0.13443707 -0.17930758
-0.24357237 0.07743185 -0.23761773 0.0016941436 -0.054502632 -0.0009306337 0.18483332 0.1339101
-0.0037812719 0.02655115 0.1642403 -0.06882547 -0.111131944 -0.053392243 0.062183894 -0.24709608
0.077476695 0.16159242 -0.21141586 0.0088836625 0.20307583 -0.17530559 -0.047188338 0.024933705
0.015067247 0.13032065 0.04509497 0.014530224 -0.221666 0.03874888 0.13631833 0.07603778
-0.053521074 0.084831886 -0.116566315 0.09256303 -0.13364099 -0.16356342 0.20063502 0.12333759
0.06421001 -0.0025674785 -0.06709093 0.1638675 0.047273416 -0.13387449 -0.1432029 -0.17162412
0.07386672 0.11593469 -0.024234297 0.07032429 -0.13169073 -0.048754085 -0.08780587 0.09626653
0.03430107 -0.08997371 0.1397857 0.112744436 -0.0017399302 -0.029288385 0.1379122 0.012210569
-0.08912352 -0.20872268 -0.098041736 0.027923701 0.15814355 -0.022398368 -0.0592929 0.014554537
0.0026785803 -0.036791194 -0.025295105 -0.14405443 0.07748527 0.08687404 0.1056162 0.15163593
0.10084691 -0.013811786 0.0882638 0.099836044 -0.16795184 -0.11749193 0.030376479 -0.08717138
-0.1796582 -0.14123043 -0.06334682 0.116174355 0.013074874 -0.20885275 -0.028978525 -0.19089887

bias f4 [32]
00000000: fc39 37bd 1b74 39be f070 733d 862f 763c
00000010: a9f1 9fbd 8c10 573e 7bc6 b83d cb70 053e
00000020: 43f3 cf3b 7629 6a3e 6417 09bd d6e7 913d
00000030: 4560 ffbd df71 2bbe cf67 ddbd 42c3 843e
00000040: 9bfe 1bbe 0fdb 2d3e b6b9 793e 364b 623e
00000050: 14a5 073d cb58 c9bd a2ec 823e cfcb 38be
00000060: b54d fdbd a63e 6a3e 022c 6bbd 8fab 45be
00000070: 871a 01be ee9b 673e baaf b7bb 1452 063e
-0.044733033 -0.18110697 0.059433877 0.015025979 -0.07809765 0.21002406 0.09022232 0.13031308
0.0063461377 0.22867379 -0.033469573 0.07124297 -0.12469534 -0.16742657 -0.108108155 0.2593022
-0.15233843 0.16978095 0.2438725 0.22099003 0.033116415 -0.09831389 0.25571162 -0.18046497
-0.12368337 0.22875461 -0.057415016 -0.19303726 -0.12607776 0.22618076 -0.005605665 0.13117248

weight f4 [32, 32]
00000000: deef 79bd 1fdc b83d e5e9 323d 0ec1 e0bc
00000010: 13a8 713d 433d b53c 306f d2bc dda3 24bd
00000020: f46c e63d 3243 c83d e4fc 38be 22c3 f33b
00000030: 122e 87bd 422d 603d 7f3c 1fbe 40a3 acbd
00000040: 6943 4d3d dfe8 b5bd 8af8 9ebd 81a2 4e3d
00000050: df5b 25be f908 dcbc a649 1cbe 6a2b 36be
00000060: 14dd 22be 2c32 8a3d 7189 de3d 735d e73d
00000070: 57e2 893d cb4c 06be e92c f2bd eca5 86bc
00000080: 8a0a e83c 5814 98bd 30a0 0cbd 2d4d b8bd
00000090: 964c fabd 6266 4a3e d510 fe3d c76b bc3d
000000a0: 29f1 9dbd e1ae 073e 449d 17be 3ded fcbd
000000b0: a67e ad3c e0f5 62be ecda dabc c5d5 ba3c
000000c0: d575 b83d 1f7e 03bd b67b 073e 78ae 38bc
000000d0: 6f37 e6bd 0346 1e3e 5279 e43c 7fd7 2abe
000000e0: 802f c7bd 551d 763e 933b f4bc 4e3a b03d
000000f0: 9c47 69be 9569 aa3d 5611 34be 3d77 b0bd
00000100: ff8a 8fbd e5c3 95bd 9c55 3abe d880 09be
00000110: 85d1 84be 306f 1b3e ff24 0c3e 9ccf a53d
00000120: 186e a5bd 9cf6 663b 0f91 1dbd 26f5 a2bc
00000130: 3934 7dbe 2190 74be 493f 393e 9f30 7d3e
00000140: 994d 1abd 4ec0 b9bd ebda 453d d938 3d3d
00000150: cd06 d33d 3d4e 233e 5cde 523e 8f0d 9b3d
00000160: 6664 a5bd e76a 653e 87b4 073e da2c dd3c
00000170: d390 80bd 1349 5d3d e92a 813c 41f9 463d
00000180: 4f87 0ebe c8cd b33c 9ba7 403e e1b0 1cbd
00000190: 1c3c 063e 760c 15be 2d64 473d 6be7 de3b
000001a0: 157e f9bc 3749 1cbd 00b5 1e3e 587c f73d
000001b0: 413e 04bd a02a 8f3d 128b 5dbd 7652 653d
000001c0: 3010 a13c 1e54 213d 5125 e3bd 49eb 973c
000001d0: b760 4ebb f015 b23c a949 863c 543e 01bd
000001e0: 02c6 963d 0cc6 c03d 39e9 b6bd 6011 83bd
000001f0: 2f1a 01be d965 13bd 6cb2 df3d 1c6e 363d
00000200: 6079 ec3d 0218 8e3d 3ef0 a1bd 8b37 bfbd
00000210: 3f98 12be 71da ddbd 47df c73d 5ed2 013d
00000220: e31f 3ebd 10e1 b1bd ddea 05be 564c d1bd
00000230: f7d9 0c3d 19ef c93d 6807 8e3d 419b de3d
00000240: 3427 e53d 7e70 fcbd 04d4 c8bc 5de9 05be
00000250: c1a4 9dbd f124 013e 3bcd 87bd eb60 27bd
00000260: 225d 2f3c 4d27 5d3d c574 38bd 0acc 66bd
00000270: 0feb 3fbd 8455 8f3d ee19 b43d ac60 25bc
00000280: a685 0dbe 27b3 2a3d d7bf 453e 48bc 17be
00000290: 9549 4b3e 2b09 0dbe f4ef 2e3c c097 3dbc
000002a0: 9ead f33d 58de e9bd aa91 34bd dc4e d5bd
000002b0: 16a2 21be 0f67 583e 5092 c9bd 9fb0 5fbd
000002c0: bd02 913b c6a7 30be 67fe 4fbe cc15 f2bd
000002d0: 12ca b2bd 87ca 89bb 4db8 0bbd 14c6 5ebd
000002e0: 8c16 61bd e5d0 8ebd 33a3 90bb c5a3 20bd
000002f0: 2838 9d3d de22 13be 5f2f 25be c809 21be
00000300: 7457 8cbc 0ea6 b23d c2c5 cc3c c449 79bd
00000310: 78e7 97bd 3c54 023e 737a 533d 3b4e 933d
00000320: 2410 41bc 2fa5 e5bc 3a69 45be 543e 03be
00000330: d6a7 5fbe 830e 0bbd 031e 38be 5550 863c
00000340: cff0 18be 8060 1d3d 051e f63d 3dcf 14be
00000350: 2c66 553d 5ea9 47be b67e d4bd 34c2 07bd
00000360: d936 ca3d bbc6 1c3e fb90 803a 18b2 b4bd
00000370: 0a99 f4bd c6e0 0cbe 66c3 a7bd 1171 babd
00000380: 11c7 0abe 7d41 db3d de0b 853d 0418 19bd
00000390: 61fa 613d 3fd4 46bd 2dff 243e be40 2dbe
000003a0: 7ca6 043d 1f37 053e a610 9bbc 0f68 f73c
000003b0: ae46 a2bd 68e9 79bd 92c8 2b3e c3ef f13d
000003c0: e97c a2bd b9e6 823d 867d 28bd 5513 613e
000003d0: 84d2 f33c eea3 463e 0845 88bd c56e 3dbe
000003e0: 9da9 b5bd 8064 60bd 266d 433e 6347 b43b
000003f0: e19f 43be d8ac 12bd dd07 03be c82f 6b3d
-0.06101977 0.0902636 0.04368009 -0.027435806 0.05899818 0.022123938 -0.025687784 -0.040195335
0.1125125 0.097784415 -0.1806522 0.007439033 -0.06600584 0.05473066 -0.15550421 -0.08429575
0.050113115 -0.08882307 -0.07762249 0.050447945 -0.16148327 -0.026859747 -0.1526247 -0.17789999
-0.15904647 0.06747851 0.108660586 0.11297121 0.06732624 -0.13115232 -0.11824972 -0.01643654
0.028325338 -0.07425755 -0.034332454 -0.08999095 -0.12221639 0.19765618 0.12405554 0.092002444
-0.07712013 0.13250305 -0.14806086 -0.12349937 0.021178555 -0.22164106 -0.026715718 0.022807011
0.0900685 -0.0321027 0.13230786 -0.011272065 -0.11241042 0.15456395 0.027889881 -0.16683768
-0.09725857 0.24034627 -0.029813563 0.08604871 -0.22781223 0.083209194 -0.17584738 -0.08616493
-0.07008933 -0.073127545 -0.1819672 -0.13428056 -0.259411 0.15179133 0.13685988 0.08096239
-0.08077639 0.0035242205 -0.038468417 -0.019892287 -0.24726953 -0.23883106 0.18090548 0.24725579
-0.03767166 -0.09069882 0.04830448 0.046196792 0.103040315 0.15947814 0.20592636 0.075709455
-0.0807579 0.22404061 0.1325246 0.026998926 -0.06277623 0.054024767 0.015767531 0.04857755
-0.13918804 0.02194871 0.18813936 -0.038254622 0.13108867 -0.14555535 0.04867952 0.0068024895
-0.030455628 -0.03815576 0.15498734 0.120842636 -0.032285932 0.06990552 -0.054087706 0.055986844
0.01966104 0.03938686 -0.11091102 0.01854481 -0.0031490752 0.021738976 0.016392546 -0.03155358
0.07361986 0.094127744 -0.089312024 -0.063997984 -0.12607644 -0.0359858 0.10922703 0.044538602
0.11546588 0.06938173 -0.07907151 -0.09336766 -0.1431589 -0.1083268 0.09759384 0.031694762
-0.04641713 -0.086855054 -0.13077874 -0.10219638 0.034387555 0.098600574 0.069350064 0.10869456
0.11189118 -0.12326144 -0.02451516 -0.13077302 -0.0769744 0.12611748 -0.066309415 -0.040863913
0.010703357 0.05399256 -0.045033235 -0.05634693 -0.04685503 0.06998733 0.08794008 -0.010093849
-0.13820514 0.04167476 0.19311462 -0.14817917 0.19852288 -0.13773029 0.0106773265 -0.011571825
0.11898349 -0.11419362 -0.04408423 -0.10415432 -0.15784487 0.21133064 -0.0984236 -0.0546118
0.0044253753 -0.172515 -0.2031189 -0.11820564 -0.08729948 -0.0042050513 -0.03411131 -0.05438812
-0.054953143 -0.06973437 -0.004413986 -0.039218683 0.076767266 -0.1436877 -0.16131352 -0.15726388
-0.017131545 0.08723079 0.024996642 -0.060861364 -0.07417196 0.12727445 0.05163045 0.07192656
-0.011783633 -0.028032867 -0.19278422 -0.12816745 -0.21841368 -0.033949386 -0.17980199 0.016395727
-0.14935611 0.038422108 0.120174445 -0.1453218 0.05209939 -0.19498202 -0.10375731 -0.03314419
0.098737426 0.15310185 0.0009808833 -0.08823031 -0.119432524 -0.1375762 -0.08191566 -0.09103597
-0.135525 0.1070585 0.06496404 -0.03737642 0.05517042 -0.048542257 0.16112967 -0.16919228
0.032385334 0.13009308 -0.018928837 0.030200986 -0.07923637 -0.06101361 0.1677573 0.11813309
-0.07933981 0.06391663 -0.041135333 0.21980031 0.029763468 0.19398472 -0.06653792 -0.18499286
-0.08870242 -0.054783344 0.19084606 0.005501674 -0.19103958 -0.035809368 -0.12795968 0.057418615

bias f4 [32]
00000000: 6db1 07be f21b 893d bd14 033e f2d7 0ebe
00000010: fd5e 7c3c 6376 13be 70ce 83bd 9adb 0f3e
00000020: 4c7b 46be 6865 2bbe e05a 0fbe 03b5 50be
00000030: 87c6 e7bd fb68 19bd 3bae 743d 049f 343e
00000040: e237 2d3e c2bd 433c edcb 093e 9202 47bc
00000050: 0315 263e 3f10 233e add8 a33c 31db 5a3c
00000060: 0896 1e3e a8ca 09be a781 81bd 8f6e 35be
00000070: e19f 80bd 9cf1 183e 0719 29be 5c2b 533e
-0.13251276 0.06694783 0.1280088 -0.13949564 0.015403506 -0.1440063 -0.06435859 0.14048615
-0.19382972 -0.16737902 -0.1399951 -0.2038155 -0.11317163 -0.037453633 0.05973647 0.17638785
0.16915849 0.011947097 0.13456698 -0.012146609 0.16218953 0.15924166 0.02000078 0.013357923
0.1548692 -0.13456213 -0.06323557 -0.17717956 -0.062804945 0.14935917 -0.16513453 0.20622009

weight f4 [32, 32]
00000000: 3d1e 97bd e5ba 223d b637 78bd c275 603e
00000010: a434 a63d a2f8 5e3e 82bb 5abd 4b3f 13be
00000020: 5e7b e93c 79c4 b93d d41b 323e 4933 353e
00000030: 3772 9dbd 31f1 053e 5e94 e73d 82bc 4cbd
00000040: 9020 0f3e be95 5e3d d850 003d 7a10 3fbe
00000050: 12cf b6bd 7e70 b43d 71d3 0abe 9d5b e0bc
00000060: 4ba4 13bd e678 043e a725 bdbc 9813 4b3d
00000070: a1c0 8c3d 7be6 4cbe ceac b5bc 325f 4dbe
00000080: 4bed bbbd 0f6a c13d cf1a c63c 9d73 ddbc
00000090: 8b3d 39be ab3a 4ebe 95fa 3a3d 8ccb 2e3e
000000a0: 729d 293d b77a fc3d bee8 9bbd 70e5 a33d
000000b0: 647b 44bd 42eb 0fbe a467 abbc 552a 193d
000000c0: 7c44 7cbd f8b9 12be 8861 543e 9fad 18bd
000000d0: 40cb 563e 136e dbbc ebac d73d 298e 07bd
000000e0: a4d6 98bd 9cae 04bd 5862 1ebd 035a 27be
000000f0: d641 223d f2f4 5f3e 1ec7 89bc 586c a73d
00000100: 3b5e 1fbd f265 90bd 5e6d 7f3d 5504 6b3d
00000110: 3eec aa3d e0cc 533e 794e 353e 0f77 64be
00000120: c358 1a3d 8e73 74bd 46ff 043e 663f 703e
00000130: 9713 c8bc 6c00 5b3e 68a1 3c3e 860a 78be
00000140: eae1 a13d 2943 8abd 7fe3 28bb 4fc7 86bd
00000150: 22ac 19bc f279 19be 2d14 8cbd ee65 3cbe
00000160: e127 ad3d 8078 50bd 1f9f cb3d d791 d73d
00000170: 01fc 043e d0ee e5bd 10e2 9fbd fa54 40bd
00000180: 8069 ecbd 4498 d13d 1bb1 4e3e bc75 5dbe
00000190: 93c5 4fbe 768c 853c a954 d1bd 7c45 68bd
000001a0: 0aa9 c4bd 507d 11be 077a 2ebe fd14 5bbd
000001b0: 0f98 11be 2de6 0fbe d654 a13d 40b9 fb3c
000001c0: ddc6 233e 137a 1d3d 6fae 793e a9bf 35be
000001d0: 3ef5 07bd ef0e 133e 5eb2 f13d ff8b 3a3e
000001e0: 40d5 393e dc3f 62bd 0a7e 1d3e 89eb 51be
000001f0: 3235 81bd 6ee7 e13d eb6a 16be 31d5 93bd
00000200: 48a5 afbd 0b7d 4abd 7dc1 2d3e 8625 80bd
00000210: c01f 46be 28af 39be c344 c63c b34c b83c
00000220: a4c5 77be ee16 dfbd 0cc8 3cbe c1e5 eabc
00000230: 387a 81bd 8957 0abd 235b a7bd fc8b ef3c
00000240: 9eef 2d3c 3535 1bbd d5af 243e 9fc5 7ebd
00000250: c091 5b3e be1d 1c3e 7d23 363e 7fa8 2c3e
00000260: ed44 113e d2c9 1a3d 7482 27bc 8878 e1bd
00000270: 0300 763d ca4e 223e 73b7 273d 74df 583e
00000280: e02c c33d 30a7 8bbd aef9 20be 18f8 073e
00000290: f953 efbc fcb2 333d e7f5 fb3c 6a90 18bd
000002a0: 4513 0b3e f4a9 afbb d5ef 243e 4d8a cabd
000002b0: d148 063d 88fb b4bd 6937 ee3d 9b9d c73c
000002c0: 21c0 e0bd c513 583e 8fa9 bd3d 9799 7abc
000002d0: d60d 843c e431 083e b274 fd3d 633b 06bc
000002e0: 07c9 f6bd a066 103e 5900 533c 4838 90bd
000002f0: 698a 12be 9d8d 5b3d fef3 0ebd e54f b5bc
00000300: c468 75bd cf30 0cbc f4e2 023e 0aaf 4dbe
00000310: 0b81 b63d a28e 0b3d 4ae4 bbbc c535 e23d
00000320: bbf3 92bd 0e7f 073c 3d6f 0bbe 12dd f8bd
00000330: 0472 d0bd 1a21 5cba cfa2 33be 0fe3 463e
00000340: 26a8 133d 5fde 413d 1b67 133d dcaf 06bd
00000350: f8b2 29bd 9fa3 e53d 0ce1 c43d 5f67 413e
00000360: 0941 673d f6b8 0bbc 10ba 0a3e 28b0 e53d
00000370: adf3 e9bd dfc0 9ebd 7b19 f33c 60d1 ab3d
00000380: 158f 06be acc6 343e e5a9 c7bc dbb7 033d
00000390: d965 373e 4b36 4c3d 73d8 04bc d062 e7bd
000003a0: de2a 163e 3896 eb3d 78e6 0b3e 4f7f 1f3e
000003b0: e936 a6bc 4026 d8bd 5cbd 28be ca95 9f3c
000003c0: 4f2b 28bc 00da a33d 439d a2bd 170f bf3d
000003d0: 9cde 4dbd 334d 463d 6d33 18be 9aeb 393e
000003e0: d9e5 38be d5cc c83d 2700 afbd 9191 16bd
000003f0: a53e 083e 45e0 cf3c 024e 583e 9f71 923d
-0.07378814 0.039729018 -0.060600005 0.21919921 0.08115509 0.21774533 -0.053401478 -0.14379613
0.028501209 0.09070677 0.17393428 0.17695345 -0.076878004 0.13080288 0.11307596 -0.049984463
0.13977265 0.054342024 0.0313271 -0.18658629 -0.08926214 0.08810519 -0.13557221 -0.027387435
-0.036045354 0.12936744 -0.023089243 0.049579233 0.068726785 -0.20009796 -0.022177126 -0.20055845
-0.091761194 0.09444057 0.024182705 -0.027032668 -0.18089883 -0.20139568 0.04564913 0.17069834
0.041409917 0.123280935 -0.076127514 0.08002746 -0.047969237 -0.14054587 -0.020923443 0.037393887
-0.06158875 -0.14328754 0.2074033 -0.037274953 0.20975971 -0.026785886 0.10531028 -0.03309456
-0.074628145 -0.032393083 -0.038668007 -0.1634293 0.039613567 0.21870783 -0.01681858 0.08174962
-0.038908225 -0.070506945 0.06236016 0.05737718 0.08345841 0.20683622 0.17705716 -0.22311042
0.037682306 -0.059680514 0.12988004 0.23461685 -0.024423404 0.2138688 0.18420947 -0.24222764
0.07904418 -0.06751091 -0.0025770364 -0.06580984 -0.009379419 -0.14987925 -0.06839786 -0.18398258
0.08454872 -0.050896168 0.09942459 0.105258636 0.12986757 -0.112271905 -0.0780679 -0.04695604
-0.1154356 0.102341205 0.20184748 -0.21626943 -0.20290212 0.016302329 -0.10221226 -0.05670689
-0.09602554 -0.14207959 -0.17038737 -0.053486813 -0.14218162 -0.14052649 0.07877509 0.030727983
0.15993829 0.038446497 0.24382947 -0.17748894 -0.033192866 0.14361165 0.11801599 0.18217467
0.18147755 -0.055236682 0.15380111 -0.20500006 -0.06308974 0.1103047 -0.14689223 -0.072183974
-0.08576447 -0.049435657 0.16968341 -0.06257157 -0.19348049 -0.18133223 0.02420271 0.02249751
-0.24196488 -0.10893045 -0.18435687 -0.028674008 -0.063221395 -0.033774886 -0.0817168 0.029241554
0.010616211 -0.03789254 0.160827 -0.062200185 0.21442318 0.1524572 0.17786975 0.16861151
0.1418645 0.037790127 -0.010223974 -0.11009318 0.060058605 0.15850368 0.040946435 0.2117899
0.095300436 -0.06818998 -0.15720245 0.13278234 -0.029214846 0.043871865 0.030756904 -0.0372471
0.1358157 -0.005360836 0.16107114 -0.0988966 0.032784287 -0.08837038 0.116316624 0.024367144
-0.10974146 0.21101291 0.09260856 -0.015295408 0.016119879 0.13300282 0.123757735 -0.00819287
-0.12050062 0.14101648 0.012878501 -0.07041985 -0.14310612 0.05360185 -0.034900658 -0.022132823
-0.059914365 -0.008556559 0.12781888 -0.20086303 0.08911332 0.034071572 -0.022936005 0.11045412
-0.07175394 0.008270038 -0.13616653 -0.12151541 -0.10177997 -0.00083972665 -0.17542575 0.19422553
0.03604903 0.04733121 0.035987 -0.032882556 -0.041430444 0.11212849 0.09613237 0.18887089
0.056458507 -0.008527985 0.1354754 0.1121524 -0.114234306 -0.07751631 0.029675236 0.083895445
-0.13140519 0.17653912 -0.024373004 0.03215776 0.17909946 0.049856465 -0.008108246 -0.11298144
0.1466479 0.11503261 0.13662136 0.15575908 -0.020289855 -0.105541706 -0.16478485 0.019480605
-0.010264232 0.080005646 -0.079401515 0.0932905 -0.050261125 0.048413467 -0.14863367 0.18156281
-0.1805643 0.098046936 -0.08544951 -0.036759917 0.13305147 0.025375495 0.21123508 0.07150578

bias f4 [32]
00000000: e5c2 11be 4a11 713e b360 19be 7cff 433e
00000010: 9581 213e 32bb ac3d e6c1 943d e555 55be
00000020: b2f6 6a3e a9fe f9bc 5f70 7c3e 3efb f9bd
00000030: c839 033e 079a 29bd 2606 bb3d 9e95 3ebe
00000040: 83b8 b53d ee27 023e 52df 2ebe 1928 c33d
00000050: 9394 02be 27df bf3d bf5a 1d3e b9ba 57bd
00000060: 3f97 a1bd dbb5 633b d4e1 69bd bb29 4d3e
00000070: 2a64 eabd 06de 2fbe 54ac ddbd b892 503e
-0.14234503 0.23541752 -0.14978294 0.19140428 0.15772088 0.08434142 0.07263546 -0.20833547
0.2294567 -0.03051694 0.24652241 -0.12206124 0.1281501 -0.041406658 0.09132032 -0.18611762
0.088730834 0.12710544 -0.17077377 0.095291324 -0.12751989 0.09368735 0.15366648 -0.052668307
-0.07890176 0.0034745845 -0.057100132 0.2003545 -0.11444886 -0.17174539 -0.108238846 0.20368469
