model/Model1.pt (torch, 41853 bytes, 17 tensors)

weight f4 [32, 6]
000000 3c 78 65 3e 54 2f 96 bd ef c2 97 bd 5c f3 89 bd
       0.22409147 -0.07333246 -0.074102275 -0.0673587
000010 c7 c4 48 3e 59 b9 cb 3e 57 55 c4 3e 13 90 1a be
       0.19606315 0.39789847 0.3834636 -0.15094022
000020 9b 52 42 be bd 3b 3f 3d f3 48 c3 be 19 8a 26 3e
       -0.18976824 0.04668783 -0.38141593 0.16263618
000030 08 07 84 3d 24 5e d8 3d b3 cd a7 3e 62 65 da 3e
       0.064466536 0.10564831 0.32774124 0.42655474
000040 75 9c b9 be 70 bd a0 3e fc d1 a1 3e ef 9d 61 3d
       -0.3625218 0.3139453 0.31605518 0.055082258
000050 fe 23 35 be 85 14 a8 3e 84 e4 b4 bd c8 7d 9d be
       -0.17689511 0.32828155 -0.088326484 -0.30760026
000060 e1 c9 6d 3e 68 71 23 be b4 e0 62 be 6b a5 eb bc
       0.23221542 -0.1596123 -0.2215603 -0.0287654
000070 76 24 0e bd 5b a9 52 3e c8 23 c3 3d b3 13 78 3e
       -0.03470274 0.20572416 0.09528309 0.24226265
000080 1a 39 0d be 8e f2 f6 3d 26 c5 52 be c5 e5 9b be
       -0.13791314 0.120579824 -0.20583019 -0.30448738
000090 57 9b 21 bc 5f 0c 12 be c6 92 59 3e 91 0d 5e bc
       -0.009863696 -0.14262532 0.21247396 -0.013553039
0000a0 1b 2c c7 bd 9d 7e 86 3e e2 aa b6 be cb d7 ed 3e
       -0.09725209 0.26268473 -0.35677248 0.464537
0000b0 af 68 7a 3e e8 0f 5d be 03 76 04 3f 8d d7 48 3e
       0.24453996 -0.21588099 0.5174257 0.19613476
0000c0 90 99 70 3e f3 76 91 be 28 ff 0f 3f 9d e3 8c be
       0.2349608 -0.28411064 0.5624871 -0.27517405
0000d0 9e af 2b be 75 2e 69 3e 17 0a 26 3e 03 8a 43 be
       -0.16766211 0.22771628 0.16214786 -0.19095616
0000e0 b6 30 86 3d b1 b2 ba 3e df 26 97 be 7a 0d c7 3d
       0.065522596 0.36464456 -0.29521844 0.09719367
0000f0 d8 86 85 3e ef 9b 1c be b8 33 6a 3e 0d 70 83 be
       0.2607944 -0.15293859 0.22871292 -0.25671425
000100 3c 95 b8 3e bb d6 59 3e c9 a5 a9 3c 56 68 e3 3e
       0.36051357 0.2127332 0.020708935 0.4441554
000110 9b 28 29 be 30 73 da bd bf 01 19 3d d1 96 a0 be
       -0.16519396 -0.106665015 0.03735518 -0.31365064
000120 d3 00 ae 3e 7e a8 ae 3e 1a 81 88 bd 8a 44 bf 3e
       0.33985004 0.34112924 -0.06665249 0.3735698
000130 9e f5 e1 be b4 53 45 3e 86 3b 04 3f 13 7a 00 3e
       -0.44132704 0.19270211 0.51653326 0.12546568
000140 22 cc 15 3e ad 4c e7 be aa 76 c0 3d af c4 b7 bd
       0.14628652 -0.45175686 0.093976334 -0.08973061
000150 8a 8a 9f be b4 e7 30 3d 87 dc 5a 3e 27 5f 5a be
       -0.31160384 0.04318972 0.21373187 -0.2132536
000160 75 5d 51 3e fc 9a d7 3e ef 50 99 3d 30 93 98 3e
       0.20445807 0.4211043 0.0748614 0.29799795
000170 39 c9 0b 3f 48 34 44 be 56 6f 64 be 29 73 da 3e
       0.54603916 -0.19160569 -0.22308096 0.42665985
000180 45 b6 cb 3e 0c cf 34 3e 40 01 d8 be 55 1f d8 3e
       0.39787498 0.17657107 -0.42188454 0.42211404
000190 d3 ae cf 3d d7 c0 53 bd d9 16 be 3e 59 6d b6 be
       0.10140767 -0.05169758 0.37126806 -0.356303
0001a0 29 f8 21 3e 38 f6 a0 be f5 d6 5a 3e 78 17 46 3e
       0.15817322 -0.3143785 0.21371062 0.1934489
0001b0 fd 8f ce 3e 85 b5 cb 3c 1f 70 78 3e 1a 73 2a 3d
       0.4034423 0.024866829 0.24261521 0.041613676
0001c0 3b 57 d4 3d 9a 4e a6 be 07 bb c9 3e 00 f9 1b 3e
       0.103682004 -0.32481843 0.39400503 0.15231705
0001d0 09 91 18 3d 16 79 73 bd cc 62 47 be 5f bf 65 3e
       0.03724769 -0.05944165 -0.19471282 0.22436284
0001e0 8b e3 a5 be 6b 2f f7 bd 8e be 89 be 18 05 12 be
       -0.32400164 -0.12069591 -0.26903194 -0.14259756
0001f0 2a eb 8c be 4f ce 93 be e6 c1 10 3e 4b f9 2c 3e
       -0.27523166 -0.28868338 0.14136466 0.16891973
000200 d5 84 51 be 5d 7f 38 3e 0d 22 df be 23 83 ef 3e
       -0.20460828 0.18017335 -0.43580666 0.46779737
000210 a4 4f 85 3e 0e 03 22 3e 41 78 13 3c 6f bc db 3c
       0.26037323 0.15821478 0.009000839 0.02682325
000220 8d 6a b2 bd 9c 7b d0 be 74 00 0c 3d 30 4a 7a be
       -0.08711729 -0.40719306 0.03418012 -0.24442363
000230 a1 5d a4 bd e4 a8 ec bd 4e 19 8a 3e ef 79 36 3e
       -0.08025671 -0.11555651 0.2697243 0.17819951
000240 e7 52 e3 bd 09 77 e8 be 63 b0 be 3e 2e 03 93 be
       -0.11099797 -0.45403317 0.37243947 -0.28713363
000250 5d d7 c7 bd c8 10 a9 be 34 f7 3a be 9e 7e 03 3f
       -0.09757874 -0.33020616 -0.18258363 0.5136508
000260 24 94 e0 bd 4f 5c 74 3d d7 88 60 be a0 80 0f be
       -0.109657556 0.059658345 -0.219272 -0.1401391
000270 5d 36 ad be 4d 1f e3 ba 25 30 8d bd 05 2a bd bd
       -0.33830538 -0.0017328054 -0.068939485 -0.0923653
000280 88 d4 ce be 35 00 da 3e 5f ff dd 3d e7 20 ce be
       -0.40396523 0.42578283 0.10839724 -0.40259477
000290 7e 7f a8 3e e7 8c f6 bd c8 17 98 3e d9 34 97 3e
       0.3290977 -0.12038594 0.29705644 0.29532507
0002a0 58 54 95 3e f8 e2 78 be e8 a7 db 3e 4e d7 02 3e
       0.29165912 -0.24305332 0.4290154 0.12777445
0002b0 71 72 95 bd 65 a5 81 3e ba e4 b7 3e 04 f2 ab be
       -0.072972186 0.253215 0.35916692 -0.3358308
0002c0 aa fd b7 3d 88 cf ab 3e ae 2f 72 be 74 73 ec bd
       0.089839295 0.3355677 -0.23651001 -0.115454584
0002d0 94 85 44 be 32 c8 8e 3d cd fc 86 3e 1f 12 4a be
       -0.19191581 0.06971778 0.26364747 -0.19733475
0002e0 35 ab 65 be 77 40 e5 3e b8 8f c6 3e 32 89 39 be
       -0.22428592 0.44775745 0.38781524 -0.18118742
0002f0 dd 6f 9d bd 44 52 70 3e 03 dc 8f be 1b 78 c6 be
       -0.07687352 0.23468882 -0.28097543 -0.38763508

bias f4 [32]
000000 f0 94 86 be 4d a3 b3 be b8 95 e8 3e a4 20 01 be
       -0.26285505 -0.35085526 0.45426726 -0.12610108
000010 62 1d d0 bd d0 c4 b7 bd cb 1d b5 3e d9 d9 e1 be
       -0.10161854 -0.08973086 0.35374293 -0.44111517
000020 a0 2d 9e be 21 5f 1a 3d de 46 7d be d4 d3 a4 3e
       -0.30894184 0.03768838 -0.24734065 0.32192862
000030 39 52 70 3e d3 d0 97 be 04 69 c5 3e a7 4e 16 3e
       0.23468865 -0.29651508 0.38556683 0.14678441
000040 e6 ab 1c 3d 81 2b a2 be c7 2c 09 3e fa 3e 29 be
       0.038249873 -0.31673816 0.13395987 -0.1652793
000050 71 4a 67 3e 5d 7b c9 3e c7 01 d1 3e f4 df 95 3d
       0.22586991 0.3935193 0.40821669 0.07318106
000060 a1 79 71 3d b9 5b 8b be d5 e6 21 be 1c dd 9c 3e
       0.058953885 -0.27218416 -0.15810712 0.30637443
000070 78 a8 88 3e 70 b0 cb 3e 64 56 f4 3d af c6 7a be
       0.2669103 0.3978305 0.1193054 -0.24489854

weight f4 [32, 32]
000000 24 c5 6f 3e 34 fc ea 3d c5 55 1a bd f9 8d 0c be
       0.23415047 0.11473885 -0.037679452 -0.13726033
000010 1d 16 60 3e c3 6f 26 be b6 fb 38 3e e2 db 5e 3c
       0.21883436 -0.16253571 0.1806477 0.013602229
000020 4f cc 13 3e 08 a2 0a 3e 9f 3b 0d bd 00 10 86 bd
       0.14433406 0.13538373 -0.034480687 -0.065460205
000030 d6 eb 70 3e 23 2e 4a bd bb 15 45 3e bc 5c 7d 3e
       0.23527464 -0.049360406 0.19246571 0.24742407
000040 40 47 45 bb 57 e1 8d 3c c9 bd a7 3d e4 0a 67 3e
       -0.0030102283 0.017319364 0.081904955 0.22562748
000050 1f 68 20 3d bb 03 4f 3c d6 22 18 be 62 9c fa 3d
       0.039161798 0.012635167 -0.14857039 0.12236859
000060 fa d5 02 3d d9 a9 0e be 97 86 ca 3d 99 f6 0d 3d
       0.031942345 -0.13931979 0.09888952 0.034659002
000070 e4 4f 6f 3e 2f 6d 87 3d 15 e8 b0 bc 8a 04 49 be
       0.2337032 0.06612622 -0.02159504 -0.19630638
000080 88 1c 73 3e 70 1d 5a bd 26 d2 59 bd cb b4 0b be
       0.23741353 -0.05325073 -0.05317893 -0.13643186
000090 99 b9 3b 3e 1c 0c 47 be d9 c1 7f 3e 0e 7f 42 be
       0.18332519 -0.19438213 0.24976291 -0.1899378
0000a0 f3 c2 3a 3e 55 f1 6b 3e ee 1d 1c bd 4c e4 00 bd
       0.1823843 0.2304128 -0.03811448 -0.03146772
0000b0 f4 18 d6 3d a8 e8 76 be 56 e1 c8 3d 1c 83 76 bc
       0.10453978 -0.24112189 0.098086044 -0.015045907
0000c0 0e 60 d2 3c 38 9e 25 3e 53 30 56 be 18 fa 41 3e
       0.025680568 0.16173637 -0.20916872 0.1894306
0000d0 dc b2 29 be 9f e1 f2 3d 2b 49 a8 bd 2a 43 1f bd
       -0.16572136 0.1185944 -0.08217081 -0.038882412
0000e0 a8 67 12 be 66 c2 0a be bc dc 25 3e 57 e5 73 3e
       -0.14297354 -0.1355072 0.16197485 0.23817955
0000f0 ca d2 23 3d b5 d4 90 3d 6c 7c 6f 3e 06 8c 4e be
       0.039995946 0.07071821 0.23387307 -0.20170602
000100 b8 55 22 bd 84 c3 d7 3d cb 44 32 be f8 98 d2 3d
       -0.03963253 0.105353385 -0.17409055 0.10283083
000110 c6 6b 8d bb bf a5 00 be d2 d6 de 3c b8 db 15 be
       -0.004315826 -0.12563227 0.027202044 -0.14634597
000120 60 b7 ff bd 31 cc 6b 3d 8a ea 26 3e 4d 21 b9 bd
       -0.12486148 0.05756778 0.16300407 -0.09039555
000130 81 02 34 bc 3a 8d b7 3d eb ba 3e 3b 43 db 28 be
       -0.010986925 0.08962484 0.002910311 -0.16489892
000140 fb b5 b1 3c de c2 96 3c d6 77 7c 3d 61 a6 07 3e
       0.02169322 0.018403467 0.061637722 0.13247062
000150 bc 61 17 bc 0e 55 4c be d1 ef d1 3d c4 9f 64 3d
       -0.00923961 -0.19954321 0.102508195 0.055816427
000160 d9 0a 8f 3e 26 0f 5d bd a4 2c 87 bd 92 6f 22 3c
       0.27937964 -0.053969525 -0.066003114 0.009914296
000170 ce e5 07 3e 63 9b f6 bd f3 b3 91 3d 47 cc bd 3d
       0.13271257 -0.120413564 0.07114401 0.092674784
000180 67 78 de 3d 46 8e f9 bd 3c b2 cf 3d fc 62 d9 bd
       0.10862809 -0.1218534 0.101414174 -0.10614583
000190 d0 c8 c5 3d c1 36 4f be 69 ce 07 b9 6c 2a f8 bd
       0.096574426 -0.2023573 -0.00012951497 -0.12117466
0001a0 fc d2 91 bd 17 25 c9 3c 5f 08 cd bd de 88 48 be
       -0.0712032 0.024553819 -0.10011362 -0.1958346
0001b0 8a 8b 67 bd e8 a7 64 bd e1 cb c2 3d 1b 80 5e 3e
       -0.05652956 -0.05582419 0.09511543 0.21728556
0001c0 0d 7b 2f 3d 0b 9e 4f 3e 6e 87 cb 3d 60 7c 24 3e
       0.04284196 0.20275132 0.099379405 0.1606307
0001d0 49 b4 be 3d 21 92 47 bd 3f d5 d1 3c da a6 0a 3c
       0.093117304 -0.048723344 0.025614379 0.008462632
0001e0 99 0d 2a bd 37 17 c9 3c 2e 21 a0 bd fc df d5 3d
       -0.041516874 0.024547203 -0.078188285 0.10443112
0001f0 07 bc 35 bd 7e 44 5a 3e 21 aa 31 bd 4b df c5 bd
       -0.04436877 0.2131519 -0.04337514 -0.096617304
000200 37 84 aa bd d8 64 34 bd 77 fc e1 3c c5 b2 25 be
       -0.08325999 -0.044041485 0.027586205 -0.16181476
000210 58 05 ca 3d b3 6f 37 be e9 8c 27 3e 77 76 44 be
       0.098643005 -0.17913704 0.16362347 -0.19185816
000220 2e 65 5a bd d7 0f f7 3d 28 53 f4 3d 6d 3a 56 be
       -0.05331915 0.12063568 0.11929923 -0.20920725
000230 cc 48 0a 3d 9e c1 ab bd e9 54 c9 3d 54 58 a5 3d
       0.03376083 -0.08386539 0.098306485 0.08073488
000240 fc fd 57 be 94 a0 26 3e cb eb 8a bd 1f 93 43 3e
       -0.21092981 0.16272193 -0.06783255 0.19099091
000250 60 84 1b be 39 15 51 3e 52 40 9d bd bc 6d c1 3c
       -0.15187216 0.20418252 -0.07678284 0.023611896
000260 fb 7a b8 b9 ce ec af 3c 7f 15 be bd 32 50 e7 3d
       -0.00035186842 0.021475222 -0.09281444 0.11294593
000270 8e 40 87 bd 08 5d d2 3d f2 af 37 3b f0 06 16 be
       -0.0660411 0.102716506 0.0028028456 -0.14651084
000280 cf f9 ab 3d e3 7a a0 3d 69 48 f1 3d f7 ea 31 be
       0.083972566 0.07835939 0.11781389 -0.17374788
000290 bd 35 0a bd f1 63 49 be 4f 18 c0 3d 55 4f 72 3c
       -0.033742655 -0.19667031 0.093796365 0.014789422
0002a0 b5 14 0c 3e 1e d2 78 3e a5 d7 9d 3b b8 80 3d be
       0.13679774 0.24298903 0.0048169666 -0.18506134
0002b0 15 54 94 bb 74 d3 56 be e9 f8 54 3e 1a d0 4d 3d
       -0.004526625 -0.209791 0.20798077 0.05024729
0002c0 85 85 af bd fe c8 87 3c 79 94 bc bd e1 e0 8b bb
       -0.08570389 0.016575333 -0.092080064 -0.004268751
0002d0 a6 0d f6 bd 11 c6 15 3e 9c 11 a4 3d ae 09 c2 3b
       -0.12014322 0.14626338 0.08011171 0.005921564
0002e0 54 c9 4b be 3b 05 72 3c 88 c2 f1 3d aa 3d a0 bd
       -0.1990102 0.014771755 0.11804682 -0.078242615
0002f0 06 d1 a2 3d e4 c0 a9 3d 6a f9 0c bd 2b 25 2e 3d
       0.07950024 0.08288744 -0.034417547 0.042515915
000300 e4 2d 22 3d 4f 13 e5 3d 1d c3 11 3d 7e dc f4 bb
       0.039594546 0.111853234 0.035586465 -0.007472574
000310 8b 97 d3 bd 3e 09 22 be 15 03 d8 3d 84 bf 6e be
       -0.10331639 -0.15823838 0.10547463 -0.23315245
000320 fd 1a d0 bd 86 f5 87 3c 76 f4 a8 bd 1d ce 44 bd
       -0.101613976 0.016596567 -0.08249752 -0.048048127
000330 f4 70 53 3e 79 14 9a 3d c4 cf b2 bd 3c 15 92 3d
       0.20648557 0.07523436 -0.087310344 0.071329564
000340 2b 0a 78 be 9d e1 9a 3d 19 24 6b 3c 60 09 da 3d
       -0.24222629 0.075625636 0.014351868 0.106463194
000350 7e 61 63 bd 88 58 b3 3d cf fa 0d be 18 83 78 3d
       -0.055512898 0.0875712 -0.13865207 0.060671896
000360 83 26 6e be db 8b 09 be e7 37 06 3e 68 da 49 3e
       -0.23256879 -0.13432257 0.13107263 0.19712222
000370 c3 e9 12 3c 94 fd 1f 3d 07 9b f3 bc 01 2e 78 bd
       0.008966866 0.03906019 -0.029737009 -0.060590748
000380 f7 82 2e 3e 9a d3 f4 3d a6 07 87 3e 57 30 88 bd
       0.17042147 0.11954422 0.26373023 -0.06649845
000390 1a 68 56 bd 24 70 8e 3d 2f 17 27 3e 21 5d f0 bc
       -0.052345373 0.06954983 0.16317438 -0.029341282
0003a0 24 f0 55 3e 34 ae ab 3c 81 dc 4f bd 97 b7 5f be
       0.20892388 0.02095709 -0.0507474 -0.21847378
0003b0 21 44 03 3e 1b f2 65 3b 80 b2 f2 bc db 25 8c 3e
       0.12818958 0.0035086933 -0.029626131 0.2737263
0003c0 4a 0d 24 be 3a 9a d4 3d 3a 9a 87 bd 97 d8 f9 bc
       -0.16020694 0.10380979 -0.06621213 -0.030498786
0003d0 9a c3 c4 3d 75 ad 80 3e 4d 40 6e be 8c 22 86 3d
       0.096076205 0.25132337 -0.23266716 0.06549558
0003e0 b2 86 cb bd c7 27 1f be c5 f6 57 3e d0 93 6e 3e
       -0.099378005 -0.15542518 0.21090229 0.23298573
0003f0 24 96 7e 3e dd 0d 9c bc fe a1 56 3e 55 3b 72 bd
       0.24861962 -0.01904958 0.20960233 -0.059138615

bias f4 [32]
000000 4c 85 f3 bb fe 26 86 bd 95 9c 0e be b7 94 bb 3d
       -0.0074316617 -0.06550406 -0.13926919 0.091592245
000010 51 98 1e bd b4 4e fb 3d be 66 38 3d f3 4d 7e 3d
       -0.03871948 0.12270871 0.045019858 0.062086057
000020 50 25 82 3e 74 b1 2f 3e 85 2b 84 bc 4c af be 3d
       0.25419092 0.17157537 -0.016134033 0.09310779
000030 0d 1d fc ba 25 4c fc 3d 47 01 a2 bd 5d 5d 96 3c
       -0.0019234732 0.12319211 -0.079104 0.018355066
000040 89 9b cc bd 6e 19 ea bd 15 5f 5a be a7 11 86 3c
       -0.099906035 -0.114306316 -0.21325333 0.01636584
000050 ec c9 f9 bc cd e7 e6 bd e9 a8 56 3e 3d 9b 09 bd
       -0.030491792 -0.11274681 0.20962872 -0.033595312
000060 58 bd 45 ba f1 02 10 3d 38 89 7a 3d 59 b2 03 3d
       -0.0007543168 0.035159055 0.06116602 0.032152507
000070 04 2c 8d bd 1c 2f bc 3c 5d cd 56 3d e6 73 41 3c
       -0.06893161 0.022971682 0.052441943 0.0118074175

weight f4 [32, 32]
000000 3a 5f 9c bd bc 85 66 3d cd 9e dd 3d 58 26 90 3d
       -0.076353505 0.056279883 0.108213045 0.070385635
000010 21 a2 4b bd 52 b3 fb 3c c5 94 b6 bd 37 0d 0a be
       -0.049715165 0.030725155 -0.08915094 -0.13481604
000020 50 2d 85 3d 21 c8 15 be f9 90 b3 bd 4d 5b 50 bc
       0.06502783 -0.14627124 -0.08767886 -0.01271708
000030 5c 80 29 3e 91 78 13 3e 2b eb 1d be f8 19 a5 bc
       0.16552871 0.14401461 -0.1542174 -0.020153984
000040 63 2f db bd 5c fa 77 bc 15 5f 7b be 79 45 f8 bd
       -0.10702398 -0.015135374 -0.2454799 -0.12122626
000050 4b 0a 27 be 7c 3b 5c 3c 84 bc be 3b 71 57 c1 3d
       -0.1631252 0.013441917 0.0058208127 0.09440506
000060 6f 2b d0 bd 1f f9 2d bd 30 5b 13 be 5a d0 1f be
       -0.10164534 -0.04247391 -0.14390254 -0.15606824
000070 bd 3f 81 bd 30 b8 ff bd 52 ab c1 3d ab 55 01 be
       -0.06310985 -0.12486303 0.09456505 -0.12630336
000080 61 f6 67 3c ad aa 10 3e 01 7f 5b be 5f bf b4 3d
       0.014157862 0.14127608 -0.21435167 0.08825564
000090 c6 db be bd 90 eb 07 3e 50 64 03 bb 10 ae a5 3d
       -0.09319262 0.13273454 -0.0020048805 0.080898404
0000a0 71 5c dc bc 61 a0 28 be 15 44 1c be f5 dc 5e 3d
       -0.026899548 -0.1646743 -0.15260346 0.05440994
0000b0 f6 d4 4b 3c ac 15 38 be dd 1b ae bd 78 d9 65 3e
       0.012440911 -0.17977017 -0.08501408 0.22446239
0000c0 cb e4 75 3e 14 06 64 be 7b 42 a9 3b 23 70 61 3e
       0.24013059 -0.22267944 0.005165396 0.22015433
0000d0 df fe ce bc 0c 79 9c bd cf 04 a6 bd ed a5 43 be
       -0.025268016 -0.07640275 -0.08106386 -0.19106264
0000e0 e9 28 7e 3d 63 27 25 3b 3b d1 f0 3d dd 31 4b 3e
       0.062050734 0.0025200478 0.117586575 0.1984324
0000f0 e9 d3 2b 3c fd 78 ed 3d 1a b9 77 be 81 48 7f be
       0.010487535 0.11595342 -0.24191704 -0.24930002
000100 64 7f 5f be 74 5f 17 3c 1a 3d 9b 3d 31 67 d4 3d
       -0.2182594 0.009239066 0.075800136 0.10371245
000110 2e b8 61 bd 99 57 94 bd a3 0a d0 bd b3 1e fb 3c
       -0.055107288 -0.072432704 -0.10158279 0.030654287
000120 97 51 3a be 06 49 b4 3c 79 d5 75 bd f7 2d 16 be
       -0.18195187 0.022007477 -0.060018037 -0.14665972
000130 53 71 3f be 75 12 04 be 46 fc c0 3d 16 2a 97 3d
       -0.18695574 -0.12897666 0.09423117 0.07381074
000140 ba 1a b2 bc 1c de a9 3d 8c 0f 98 bd e9 1d df 3c
       -0.02174126 0.08294317 -0.0742484 0.027235942
000150 4f ee 5d be 70 5a 68 ba a2 7f 01 3e 59 a0 8b bd
       -0.21672939 -0.0008863574 0.12646344 -0.06817693
000160 60 7d 07 3e 34 9c fd 3d 10 71 9a bd 88 d9 e2 bd
       0.1323142 0.12383309 -0.07541096 -0.11076647
000170 88 38 93 bd c9 a0 26 be 13 e6 c1 bd e4 08 63 bd
       -0.07188517 -0.16272272 -0.09467711 -0.0554284
000180 03 15 30 3e 06 70 0e 3d b9 40 2c bc 05 85 d3 bd
       0.17195515 0.034774803 -0.010513478 -0.10328106
000190 33 5d 4b 3e 55 51 6b 3e 11 25 99 3d 9e df a9 3d
       0.19859771 0.22980244 0.07477773 0.08294605
0001a0 3f 6c 01 3e 86 18 35 be 02 d1 46 be be 03 d9 bb
       0.12638949 -0.17685136 -0.19415668 -0.0066227606
0001b0 85 66 e9 3d 7a 1f 4f be 74 f9 69 be 96 fa 2b 3d
       0.11396507 -0.20226851 -0.22849065 0.041987024
0001c0 82 c5 53 3d 07 b6 19 be 16 80 21 be 85 2d 22 3e
       0.05170203 -0.15010844 -0.15771517 0.15837677
0001d0 d2 8f a7 3b cf ed 0d 3d 00 66 00 be f4 3f 90 3d
       0.0051135803 0.03465062 -0.1253891 0.07043448
0001e0 6f 27 aa bd ff eb 65 be b7 52 05 3e 32 92 93 bd
       -0.083083026 -0.22453307 0.13019834 -0.07205619
0001f0 18 f0 78 bd 98 5b c9 3d df ef 78 be 30 ad 36 bc
       -0.060775846 0.09831923 -0.24310254 -0.01114969
000200 e6 fd f0 3d ab c5 76 3d 9d 60 ee bd 07 a5 54 3d
       0.11767177 0.060247105 -0.11639521 0.051915195
000210 eb 1e fb 3c 33 a2 4a bd 7c 5c 3b bd 26 df 27 3e
       0.030654391 -0.04947109 -0.045742497 0.16393718
000220 5a 05 05 3e ee fb 74 3d 5f 1e 6e be 21 d1 76 be
       0.12990323 0.05981057 -0.23253773 -0.24103214
000230 d4 7d 74 bd 31 0e 57 3c ac eb 8d bd 74 98 0c 3e
       -0.05969031 0.013125942 -0.069297165 0.13730031
000240 08 2d e4 bd 84 3c 24 bd 80 b2 84 3d 4e 84 85 bd
       -0.111414015 -0.040096775 0.06479359 -0.06519376
000250 14 5a a9 bd 32 a6 d2 3d 83 55 6d 3e bb f7 ea b9
       -0.08269134 0.102856055 0.23177151 -0.00044816532
000260 bc 80 13 bd b6 40 84 be 4a a0 3f 3e 8c b0 c2 bc
       -0.036011443 -0.2583062 0.18713489 -0.023765825
000270 1a 32 40 3e 72 39 a3 bb 4c 13 0b bd 6f 3e 68 bb
       0.18769112 -0.0049812132 -0.03395395 -0.0035437604
000280 d8 b9 56 3e b9 5b 6c 3e aa c3 23 be f5 13 c1 3d
       0.20969331 0.23081864 -0.15992609 0.094276346
000290 06 18 a6 bc 9d fb 98 3d d0 76 c3 3d ed 5c 24 3e
       -0.020275127 0.074698664 0.09544146 0.16051073
0002a0 ee b4 7d 3e d6 f4 5a be a4 88 2b bd 80 c8 4d be
       0.2477605 -0.2138246 -0.041878358 -0.20096016
0002b0 cd 58 11 bd 56 a8 1d be 14 6d 6b be b4 f5 cf bc
       -0.035485078 -0.15396246 -0.22990829 -0.025385715
0002c0 68 35 32 bd 59 3f 4d be 23 5b f5 bd 99 9e 32 bc
       -0.043507963 -0.20043696 -0.119802736 -0.01090207
0002d0 11 63 a7 bd fa de 51 be d6 88 ec 3d 07 42 27 be
       -0.08173192 -0.20495215 0.11549537 -0.16333781
0002e0 6a 28 ae bc 1b 2b c0 bd d6 97 ca bd 42 d0 02 3e
       -0.021259505 -0.09383222 -0.09892242 0.12774757
0002f0 c1 d9 17 3e bc e4 f0 3d 58 c7 a0 3c 29 72 89 bd
       0.1482916 0.117623776 0.019626305 -0.067112274
000300 7a 7e 3c be 60 3e 8e bd 0d b2 f9 3d ea 50 d3 3d
       -0.18407622 -0.06945491 0.121921636 0.103181675
000310 b7 6e 2b be d0 c2 fe 3d 2e 13 06 bd bc b1 12 3d
       -0.16741453 0.12439501 -0.032733135 0.035814032
000320 96 5a c1 bd d9 11 e1 3d d0 13 1c 3e 7f d1 6e bd
       -0.09441106 0.10989732 0.15241933 -0.05830526
000330 13 26 ad bd 85 e9 1c 3e 97 ab 98 bd 36 83 23 be
       -0.08454528 0.15323456 -0.07454603 -0.15968022
000340 57 25 9c bd 0c 54 57 3e 3f 51 e4 3c 2c 61 fd 3d
       -0.076243095 0.21028155 0.027870772 0.1237205
000350 64 28 58 be 84 4c 38 be 58 34 bf bd 9f 85 73 bc
       -0.21109158 -0.17997938 -0.09336156 -0.014863401
000360 dc 50 61 3e 32 58 6d 3d 75 10 aa 3d 31 ab 0b be
       0.22003502 0.057945438 0.0830392 -0.13639523
000370 ce 2c 78 bd fc 30 83 bd c6 4d 2f 3e 18 24 ae 3d
       -0.060589604 -0.064058274 0.17119512 0.08502978
000380 30 07 36 3e d7 74 61 3e bd 27 80 3c 75 69 15 3e
       0.1777618 0.22017227 0.015643949 0.1459101
000390 91 fe 54 bb 0a ac 30 3e 12 f9 c2 bd ab 93 12 3e
       -0.0032500366 0.17253128 -0.09520163 0.14314143
0003a0 d4 63 1c 3e 21 d6 3f be 8a 58 be 3d ca 6b 7c be
       0.15272456 -0.18734027 0.09294231 -0.24650493
0003b0 3d 21 53 3e 5d b5 14 be 3d d6 d7 bc 7d 54 e1 3d
       0.20618148 -0.1452231 -0.026347274 0.11002443
0003c0 b7 81 74 bb 7d 3d 21 be f6 9d 8a bd 22 ec ed 3d
       -0.0037308761 -0.15746112 -0.0676841 0.116173044
0003d0 4f c9 58 3d 42 fe 41 be b4 b1 d8 3c 0d bc 61 be
       0.052926358 -0.18944648 0.026451923 -0.22044392
0003e0 e3 60 3e be 3e 4e 7c be 75 1a a0 3d 2c b2 51 3d
       -0.18591647 -0.24639222 0.07817546 0.05119531
0003f0 a6 0b 19 3e 57 f4 66 3d b8 35 46 be ff 59 e5 3c
       0.1494585 0.056385364 -0.1935643 0.027997015

bias f4 [32]
000000 77 00 80 bd ce d0 38 bc e4 99 c0 3d 3f 19 81 3e
       -0.06250089 -0.011280252 0.09404352 0.25214574
000010 48 5c 16 3e de 65 3e 3d 47 4d 98 3d ea 4d 18 3c
       0.1468364 0.046483867 0.074366145 0.00929592
000020 31 b6 06 3e 45 72 d1 3d c6 15 3c bd b9 c0 0a 3e
       0.13155438 0.10226873 -0.045919202 0.1355008
000030 e7 50 b4 3d 60 56 05 be df 0e a3 3c 82 8a fd bc
       0.088044934 -0.1302123 0.019904552 -0.030949835
000040 04 62 82 bd 4f 9d 15 be 70 e0 d7 bc e2 0b e0 3d
       -0.06366351 -0.1461079 -0.026352137 0.109397665
000050 e0 df 83 bd 9d 23 37 3e 97 0e 01 be 3d c1 fc bc
       -0.06439185 0.17884679 -0.12603222 -0.030853862
000060 54 63 d3 3d 90 96 47 3e 3b ae 0f 3e c0 7a 38 be
       0.1032168 0.19491029 0.14031307 -0.18015575
000070 1e e1 13 3e ae b4 a8 3d 85 ea f3 3d 33 4c 54 bd
       0.14441344 0.08237587 0.119099654 -0.05183048

weight f4 [32, 32]
000000 50 14 ba bd 8f c6 a0 bc 91 3e 80 bc e1 5b e8 bd
       -0.090859056 -0.01962593 -0.015654834 -0.113456495
000010 bc 47 65 bd 9b 29 d2 3d 76 6c 07 be 50 9d 46 bd
       -0.055976614 0.10261842 -0.13224968 -0.04848987
000020 50 c3 c9 bd 54 11 81 3d aa 2d f0 3d dd b1 17 be
       -0.09851706 0.06302133 0.1172746 -0.14813943
000030 2c c9 6c 3b ba c3 33 be 09 62 06 be 51 81 6a be
       0.003613065 -0.17555133 -0.13123335 -0.22900893
000040 1f 67 7d 3d f3 8b 6e bd f5 9d 94 bc 40 28 a0 bd
       0.061865922 -0.058238935 -0.018141726 -0.07820177
000050 05 27 44 be 2a 65 db bd 0b 8c ae bd cb 36 11 bd
       -0.1915551 -0.10712655 -0.08522805 -0.035452645
000060 a1 79 20 be 89 41 6e 3d 8a ca fd 3d 76 15 23 be
       -0.15671398 0.058167968 0.12392147 -0.15926155
000070 eb d0 5d bd c8 0c 0b be 4a cc 35 be 53 f1 d0 3d
       -0.054154318 -0.13579094 -0.17753711 0.10202279
000080 6a 7f d2 bd cc 46 3c bd 15 92 39 be 5e 75 ca bd
       -0.102782086 -0.045965955 -0.18122132 -0.09885667
000090 fc 56 b2 bc d0 51 70 bd 2a 65 9a be 62 68 da 3c
       -0.021769993 -0.058671772 -0.30155307 0.026661102
0000a0 be b4 62 be 6f 30 d8 bc e4 b9 0a 3d 5c 7d 91 be
       -0.2213926 -0.026390282 0.033868685 -0.28415954
0000b0 07 91 0c be ee 78 8a be 2d 91 34 bd 1b 1f 8f be
       -0.13727199 -0.27045387 -0.044083763 -0.2795342
0000c0 90 91 34 be 69 09 08 bd f7 3f 0f be 4e 30 3e be
       -0.17633653 -0.0332121 -0.13989244 -0.18573114
0000d0 6d fa 39 3d 22 38 e1 bd 0d 8e 09 3d 55 e3 25 be
       0.04540484 -0.109970346 0.033582736 -0.16200002
0000e0 6f 8e 40 be 9f 9d fb bd e7 4c 35 bd f6 96 8f be
       -0.18804334 -0.12285923 -0.044262793 -0.28044862
0000f0 55 f0 12 be 7c d1 9f be a4 44 04 be 0c 65 1c be
       -0.14349492 -0.3121451 -0.1291681 -0.15272921
000100 8c 2e 38 3c b5 f9 b9 bd e3 96 15 be d6 e0 bd 3d
       0.011241566 -0.09080831 -0.1460834 0.092714
000110 dd 84 fb bc 2b 84 c9 3d 55 72 0e bd 16 69 25 3d
       -0.030703003 0.09839662 -0.034777004 0.04038342
000120 4b a6 59 3e 43 19 b5 bd 0b ad 1b bd 5e 62 93 bd
       0.21254842 -0.08842709 -0.038006824 -0.071964964
000130 f8 9e 03 3e 74 55 c6 bd 08 24 25 be 95 49 18 3e
       0.1285361 -0.09684268 -0.16127026 0.1487182
000140 6a ae 41 3e f0 9a 56 3d e9 ff 9f 3d 4a a2 7f 3d
       0.1891419 0.052393854 0.07812483 0.06241063
000150 81 ea 3a bd 79 e8 70 bd cb 3d 26 3e ef 34 2d 3e
       -0.045633797 -0.058815453 0.1623451 0.16914724
000160 64 26 6e be 43 db 13 be 8b 73 bd 3d b4 5c 15 3e
       -0.23256832 -0.1443911 0.09250554 0.14586145
000170 81 d5 54 3d 31 5b 48 3e 48 c6 18 be a7 23 f6 3d
       0.051961426 0.19566037 -0.14919388 0.12018519
000180 38 f2 73 be 4c 06 93 bd 09 bb c0 bd 05 4d 7e 3c
       -0.23822868 -0.071789354 -0.09410674 0.015521293
000190 5d 1c 85 bd c2 c4 60 3e e6 e1 19 3d 62 97 7e 3e
       -0.064995505 0.21950057 0.03756895 0.24862435
0001a0 b3 9b 71 be 9f a4 50 3e 48 08 40 3c f7 b9 76 bd
       -0.23594551 0.20375298 0.011720724 -0.060235944
0001b0 d8 a4 22 be e4 e8 97 bd 82 b9 ac bd 59 a3 4c be
       -0.15883195 -0.07417467 -0.0843382 -0.19984187
0001c0 9f e8 01 be 10 87 8c 3c bc d5 4c 3e f1 d5 a2 bd
       -0.12686394 0.017154247 0.20003408 -0.07950962
0001d0 e2 cf 44 3e f2 81 45 3e fd b4 10 be 5d 98 76 3d
       0.19219926 0.19287851 -0.14131542 0.0602039
0001e0 46 3b a3 3d 34 04 ef 3d fd 55 80 be 6f 7f b1 bc
       0.0797029 0.116707236 -0.25065604 -0.02166721
0001f0 8a 02 9b 3c 36 f6 af 3c ff 60 0e be 86 6d 2f 3d
       0.01892211 0.021479707 -0.13904189 0.04282906
000200 4c 35 13 be 34 dc 8d bb 02 b5 dc bd 9e 43 c2 bc
       -0.143758 -0.004329229 -0.10776712 -0.023713883
000210 07 10 c8 bd fa 22 f9 bb 35 67 1b 3e b9 01 37 be
       -0.09768682 -0.0076030465 0.15176089 -0.17871751
000220 09 34 4d 3e 65 97 32 3c bb 70 3a be 6b 59 ee bd
       0.20039381 0.010900353 -0.18207066 -0.11638149
000230 a5 64 c9 3d 6a 5e fd 3d 7e f2 af bd 6d 61 e3 3d
       0.098336495 0.12371524 -0.085911736 0.11102567
000240 6a d9 ea 3c c0 9a 9b bd c3 6f 80 3d 33 67 ff 3d
       0.028668124 -0.075978756 0.06271317 0.124708556
000250 67 82 5c 3b 00 c1 81 3d bf 21 4e bd 47 21 c5 bd
       0.0033647062 0.0633564 -0.05032515 -0.09625488
000260 32 c6 01 be b0 c5 43 be d9 82 3b bb 77 fa 31 bd
       -0.12673262 -0.1911838 -0.0028611927 -0.043451753
000270 37 de ef 3d b7 f6 62 bc 33 e8 75 bc f4 06 49 3e
       0.11712306 -0.013852767 -0.015008974 0.19631559
000280 66 68 0d be e7 3e e9 bd 2a ef 6d bd ac 95 04 3e
       -0.13809356 -0.11388951 -0.058089413 0.1294772
000290 6f 61 13 be 85 f5 43 be 9f 2d 0f be 05 91 10 be
       -0.14392637 -0.19136627 -0.13982247 -0.1411782
0002a0 44 e2 63 bd 7f 79 20 be c6 c5 39 be 83 08 43 be
       -0.055635706 -0.15671347 -0.18141851 -0.19046216
0002b0 d2 6e b4 bc 41 eb 74 be f1 15 67 3d b4 b2 86 3c
       -0.0220255 -0.23917867 0.05641741 0.016442634
0002c0 ed ed a1 3d ac cf d8 3d 53 37 b1 3d 3e ff ba 3d
       0.07906709 0.10586485 0.086531304 0.09130715
0002d0 22 0d 01 be 1e 8e 00 bd fd 57 55 be 1b 02 bc bc
       -0.12602666 -0.031385534 -0.20834346 -0.022950223
0002e0 c1 22 8a 3d 0c 20 e2 bd 4e c5 38 be a8 f7 89 bd
       0.0674491 -0.11041269 -0.18044016 -0.0673669
0002f0 21 a1 a7 3d 38 13 55 bd 6e 25 c8 bd d4 33 56 bd
       0.0818503 -0.05202028 -0.09772764 -0.05229552
000300 3e 78 af bd 08 25 d1 3d 69 3d 8c bd 9e b8 79 3e
       -0.08567856 0.10212141 -0.068476506 0.24386832
000310 a2 b1 a0 3d 5e fb 69 3e 7f f8 50 be dd ed f0 bc
       0.07846381 0.22849795 -0.20407294 -0.029410297
000320 3e 44 ca 3c 55 dc bf bd af 5d 18 bd a8 e6 ed bd
       0.024690744 -0.09368197 -0.03719872 -0.1161626
000330 23 12 3d 3d f6 ad fc bd c6 91 32 3d 37 41 bf bc
       0.046159875 -0.12337868 0.04359605 -0.023346527
000340 c7 06 23 be f2 b1 ab 3b 96 4f 59 3e 2b cc cf bd
       -0.15920554 0.0052397186 0.21221766 -0.10146364
000350 cc 2e 61 3e 73 b4 2e 3e e5 73 37 be 90 97 9c 3c
       0.21990508 0.17061023 -0.17915304 0.01911524
000360 e9 06 db 3c 5e e7 72 3e 42 90 bd bb b5 54 83 be
       0.026736693 0.23721072 -0.005785019 -0.25650564
000370 e1 59 89 bd 81 66 31 bd b4 b4 9b 3d 12 68 91 bd
       -0.06706596 -0.043310646 0.07602826 -0.07099928
000380 78 32 86 3c 3b e4 8d 3d e1 07 41 be a2 a4 6d 3e
       0.016381487 0.06928297 -0.18850662 0.23207334
000390 81 2d 0a 3e 64 f3 a1 3d d5 b8 31 3d e8 f2 63 3e
       0.13493921 0.07907751 0.04338916 0.2226063
0003a0 43 f9 50 be 03 02 c0 3d cd 37 f6 bd 65 2e 11 be
       -0.20407586 0.09375384 -0.12022362 -0.14177854
0003b0 0f 79 ab bc 97 e4 36 be 4d 71 84 3d dd 62 74 be
       -0.020931749 -0.17860638 0.06466923 -0.23865838
0003c0 02 d7 3d be 44 38 91 3d 0a 97 e9 3d 60 ef 88 bd
       -0.1853905 0.0709081 0.114057615 -0.06686282
0003d0 c9 c5 69 3e cd d2 be 3c 94 0e 60 bc fb 5b 34 be
       0.22829355 0.023293877 -0.013675351 -0.17613213
0003e0 cc 46 e0 3d 9c ba 04 bd 33 d1 04 be 9c 26 99 3c
       0.109510034 -0.032404527 -0.12970428 0.018695168
0003f0 bb f4 5f 3e 97 49 3f 3d 92 1f 3e be 74 e9 43 be
       0.21870701 0.04670104 -0.1856673 -0.19132024

bias f4 [32]
000000 77 e4 3c 3c c1 f4 f9 3d e6 b8 95 bd 48 17 7f 3e
       0.01152908 0.12204886 -0.07310657 0.24911225
000010 9f ba d9 bd c0 90 30 3e 75 cf 4f 3c 87 83 ef 3d
       -0.10631298 0.17242718 0.012683739 0.11695009
000020 c7 b1 49 3e 4a 89 e8 bd 05 69 79 3e 92 5c 73 3b
       0.19696723 -0.11354311 0.24356468 0.0037134034
000030 23 14 0f 3d e1 3c 5f 3d 19 b5 ca bc 33 19 9e bd
       0.034931313 0.054501418 -0.024744557 -0.0771965
000040 23 f4 e7 bd af 26 89 3e e8 52 e7 bd f0 b7 b5 bd
       -0.11325862 0.26787326 -0.1129511 -0.08872974
000050 16 1a b8 3d c9 96 39 3c 6c 33 13 3e 3e 4d 33 3e
       0.089893505 0.011327454 0.14375085 0.17509934
000060 e4 47 2b 3e 85 39 3b 3e 33 40 0e 3e fe 2c 1f bd
       0.16726643 0.1828366 0.13891678 -0.038861267
000070 77 7b 0f be 69 77 17 3e 48 25 4b 3e 19 f6 af 3d
       -0.14011942 0.14791645 0.1983844 0.08591861

weight f4 [32, 32]
000000 2c a5 c9 3d e0 23 6f 3d 87 d8 10 be 0c d0 3d 3e
       0.09845957 0.058383822 -0.14145099 0.18536395
000010 bb 9c 0a be 1a e1 ec bd 9a f5 3c 3e 8e 80 2b 3e
       -0.1353635 -0.11566372 0.18453065 0.16748258
000020 c0 8e f9 bd eb a1 1c be 0d 68 56 3e 7c ba 72 bc
       -0.121854305 -0.15296142 0.2093813 -0.014814969
000030 a8 a3 32 3d c6 14 28 be 11 50 2b be 21 d4 cf 3c
       0.043613106 -0.16414174 -0.16729762 0.025369706
000040 34 2a d1 3d c8 dd 85 3d 24 4a a8 3d d6 9c 8b 3d
       0.10213128 0.06536442 0.08217266 0.068170235
000050 1e a8 f2 3c 25 73 18 be 86 49 51 3e a0 17 08 3e
       0.02962118 -0.14887674 0.20438203 0.13290262
000060 2f 6d 84 bd d9 a8 cf 3d 22 63 e3 3d 93 db ea bd
       -0.064661376 0.10139627 0.111028925 -0.11467662
000070 ca d9 8f 3d 47 30 dc bd 3c 46 d6 bb c1 60 f1 bd
       0.07023962 -0.10751396 -0.0065391343 -0.117860325
000080 81 13 88 bd 26 c1 a9 bd 8c e5 75 3e 63 e1 2e be
       -0.06644345 -0.08288793 0.24013346 -0.17078166
000090 63 90 cc bd 70 66 ec ba aa 47 04 3c ad be db 3c
       -0.09988477 -0.00180359 0.008073727 0.02682432
0000a0 23 b9 2d 3e 1c 0a b8 3c 14 d0 50 3d 26 29 b7 3c
       0.16965155 0.022465758 0.05097969 0.022358488
0000b0 a4 b2 d1 3c 29 ee 53 3e 35 6b 0d 3e dd b0 86 3e
       0.025597878 0.2069632 0.13810427 0.2630681
0000c0 27 da 98 3e 8d 99 b9 bd 39 c1 65 3e 1b 83 a2 bc
       0.29853937 -0.090624906 0.2243699 -0.019837907
0000d0 9d 4d db 3d 9f 27 f0 3d 56 a7 90 3d 56 7f 3c be
       0.10708163 0.11726307 0.07063167 -0.1840795
0000e0 52 4d 0f 3d 20 fa 4f bc 32 6c 43 be d1 fd 28 be
       0.034985848 -0.012693912 -0.19084242 -0.16503073
0000f0 ba de b7 3c 30 c4 bc ba 7e 48 3c 3c a7 b0 53 3c
       0.022445071 -0.001440173 0.011491893 0.012920535
000100 db a1 16 3d 50 2c 92 be fc 36 fe bc 57 55 f6 bc
       0.03677545 -0.28549433 -0.031032078 -0.03006999
000110 7a 74 be 3d 5f 4a de bd 48 2c 8f bd 52 ed c6 3d
       0.0929956 -0.10854029 -0.06990868 0.09713234
000120 bb c7 af 3b b0 6d 73 3c dd 2f 25 be 65 52 ad bd
       0.005364386 0.0148576945 -0.1613154 -0.08462981
000130 05 1f 9f bd 6a f0 29 bd 7c 3f 29 be cc 48 01 3d
       -0.077695884 -0.041489042 -0.16528124 0.031563565
000140 53 de 1f 3e b6 ba e1 3c a3 e1 54 be 01 33 cd 3d
       0.15612154 0.027554851 -0.20789199 0.10019494
000150 c0 fc 80 bd d6 28 ba bd 85 34 cc bd 6c 1b 2f bd
       -0.06298208 -0.0908982 -0.09970955 -0.04275076
000160 d9 93 d2 3d b8 87 b5 bc 64 f0 0c bd b2 dc ce bc
       0.10282106 -0.022159442 -0.034408942 -0.02525172
000170 b8 5b f1 39 ec 4a 89 be d5 3e 60 bd 96 97 64 ba
       0.00046035438 -0.26814973 -0.05474742 -0.0008720098
000180 6d 3f 5c bd 71 74 46 be 57 d1 77 bd 71 9c 6d 3e
       -0.053771425 -0.19380356 -0.060502376 0.23204209
000190 c4 dd 69 bd 2b 1c 9c 3d c3 da 12 bc 67 99 c5 bd
       -0.057096258 0.0762256 -0.00896329 -0.096484
0001a0 55 12 ff bc 07 44 b1 bd 78 4b 94 3c e6 79 16 3e
       -0.031136671 -0.08655553 0.018102393 0.14694938
0001b0 b7 b0 45 3e da 2f c8 bd 96 0a 39 be 56 83 ab 3d
       0.19305693 -0.09774752 -0.18070444 0.0837466
0001c0 31 63 08 be 17 d9 cb 3d 49 5f 1b be 0e fc 87 bd
       -0.13319089 0.09953516 -0.15173067 -0.066398725
0001d0 51 85 28 3e 41 3f 0f 3d 59 a9 f9 bd 4d 4e b6 3b
       0.16457106 0.034972433 -0.121905036 0.0055635334
0001e0 4c 5f 4d be 2f 89 0e 3d bb 6e b8 3c f1 e6 15 3e
       -0.20055884 0.034798797 0.022513738 0.14638878
0001f0 b6 f6 13 be 5f 64 f5 3d ff fe 06 3e d0 94 50 be
       -0.14449582 0.11982035 0.13183211 -0.20369267
000200 8d 66 06 bc 14 dd 96 bd 1c 22 46 be a2 c2 a3 bd
       -0.008203161 -0.07366386 -0.19348949 -0.07996108
000210 fc 43 48 bd df 82 74 3c 35 bf 31 be 7d 37 29 be
       -0.04889296 0.01492378 -0.17358096 -0.16525073
000220 da 44 91 be 8f 2e b8 bd 86 a4 31 3c 77 11 8e bc
       -0.28372842 -0.08993255 0.010842448 -0.017342312
000230 5e 12 00 be f4 93 83 3c e9 15 13 bd 48 d1 4b ba
       -0.12507007 0.01606176 -0.035909567 -0.0007775021
000240 a9 d1 21 3e fd 51 30 be 18 3b a0 bc 8d 75 36 be
       0.15802635 -0.17218776 -0.019559428 -0.1781828
000250 ff a1 e9 bc c8 44 58 bd 7e 81 1e bd 87 9a a2 bb
       -0.028519629 -0.05279997 -0.038697712 -0.0049622688
000260 34 65 7b be 04 b6 14 3e 80 ae 17 3e 12 18 ec bc
       -0.24550325 0.14522558 0.1481266 -0.028820071
000270 20 1b 09 be 30 21 52 be 93 63 fd 3d 40 25 74 be
       -0.13389254 -0.20520473 0.12372508 -0.23842335
000280 a5 cf 82 be 80 d0 6b 3d 85 01 7e be 53 7b af 3a
       -0.25549045 0.057571888 -0.24805267 0.0013388194
000290 46 64 83 bd a1 16 6c bc 47 e1 3c 3e 3a 15 09 3e
       -0.0641561 -0.014409692 0.18445311 0.13387004
0002a0 8f 74 93 bc a4 0f 83 3c 4c 24 29 3e 58 1a 8f bd
       -0.017999915 0.015998669 0.16517752 -0.069874465
0002b0 81 7b e3 bd c2 b8 82 bd fb 26 50 3d f7 4d 82 be
       -0.11107541 -0.06382896 0.050818425 -0.25450107
0002c0 df ec 8a 3d e9 da 25 3e d4 a0 62 be cd 86 20 ba
       0.06783461 0.16196789 -0.22131664 -0.00061236025
0002d0 05 8d 50 3e cb 34 40 be ca ef 5e bd 87 32 ca 3c
       0.20366295 -0.18770139 -0.0544279 0.024682296
0002e0 53 45 e0 3a 7d d3 05 3e 29 81 35 3d 36 7b 29 3c
       0.0017110504 0.13068958 0.04431263 0.010344317
0002f0 d1 c5 6d be 58 29 a4 3c c8 74 07 3e 33 6c 83 3d
       -0.23219992 0.020039245 0.13228142 0.06417122
000300 24 3a 86 bd 3a 4c 82 3d 23 ec fc bd fc 1c be 3d
       -0.06554058 0.06362195 -0.12349727 0.09282872
000310 63 89 11 be e5 d5 35 be 9b e5 4d 3e 9b f5 fd 3d
       -0.14212565 -0.17757376 0.20107119 0.12400361
000320 c8 3d 51 3d a6 59 31 bc ff 59 86 bd 8a 9a 27 3e
       0.05108431 -0.0108245965 -0.06560134 0.16367546
000330 7b 9e 45 3d a0 5b 0f be 6f bf 1c be 6e bd 36 be
       0.048246842 -0.13999796 -0.15307401 -0.17845699
000340 e4 99 8d 3d 32 61 ef 3d 25 be 07 bd 50 f4 7f 3d
       0.06914118 0.116884604 -0.03314032 0.062488854
000350 b4 6c 05 be 2a 20 6e bd 8e a3 c1 bd df af c5 3d
       -0.13029748 -0.058136143 -0.09455024 0.096526854
000360 3a 11 b9 3c 2f d9 b5 bd 38 fd 0e 3e 0e d5 df 3d
       0.022591222 -0.08879315 0.13963783 0.10929309
000370 c3 90 34 bc ba 02 44 bd 53 68 09 3e 4b c7 42 3b
       -0.011020842 -0.047854163 0.13418703 0.0029720839
000380 16 65 17 be a4 76 96 be a9 a5 1d be 80 0f d9 3c
       -0.14784655 -0.2938739 -0.15395226 0.026496649
000390 f0 e0 f3 3d 96 37 cb bd 6c d9 95 bd 59 e1 ce 3b
       0.11908138 -0.099227116 -0.073168606 0.0063134846
0003a0 20 61 ee bc 9c d6 e0 bd bf 4d ee bc ae 5d 20 be
       -0.029099047 -0.109784335 -0.029089807 -0.15660736
0003b0 91 2e 81 3d 8a ec 35 3d 1f 4c 2d 3d 40 e5 8b 3d
       0.0630771 0.044415034 0.042308923 0.06830835
0003c0 7d 5e 51 3d 08 38 7c bc 10 74 ea 3b b4 5d 1f 3d
       0.0511155 -0.015394218 0.007154949 0.03890772
0003d0 9d 7d 34 be d0 5c 07 be 1c 87 76 3c 52 cc b6 bd
       -0.17626043 -0.13218999 0.015046861 -0.0892569
0003e0 92 78 4b be 1d bf 18 be bd 75 9c bd bc 04 b3 3d
       -0.19870213 -0.14916654 -0.07639644 0.087411374
0003f0 57 78 a2 bd 91 e3 58 be 90 9f c3 bc ff 8f 64 be
       -0.07933109 -0.2118056 -0.023879796 -0.22320555

bias f4 [32]
000000 1f 4f 1c bd fe 26 b7 be 0b 30 00 3e c7 71 83 3c
       -0.038161393 -0.35771936 0.12518327 0.016045464
000010 f6 0b 73 bd 4e ee 5b 3e 68 0c c3 3d 2e 33 62 3e
       -0.05933758 0.21477625 0.09523851 0.22089836
000020 90 2f 17 3d 6b bd 75 3e 88 b2 3d bd c8 41 f3 3d
       0.036910594 0.23998038 -0.04631284 0.11877781
000030 5c b3 2e be b5 1f 19 be 36 6a e3 bd 24 c3 89 3e
       -0.17060608 -0.14953502 -0.111042425 0.26906693
000040 77 e0 21 be 96 3d 31 3e de 27 7d 3e e1 62 68 3e
       -0.15808283 0.1730865 0.2472224 0.2269397
000050 f0 5d 21 3d 16 6a ef bd 71 23 8a 3e a3 61 40 be
       0.039396226 -0.11690156 0.26980165 -0.18787245
000060 fd 0f 15 be b0 b3 74 3e eb 99 20 bd f1 55 53 be
       -0.1455688 0.2389667 -0.039209288 -0.20638253
000070 73 da f1 bd 66 7f 6c 3e f2 bf 35 bd cc ed 0c 3e
       -0.11809244 0.23095474 -0.044372506 0.13762587

weight f4 [32, 32]
000000 05 92 6a bd 04 61 c4 3d 6e 78 1e 3c e5 ed bf bc
       -0.05726816 0.09588817 0.009672267 -0.023428867
000010 fb 0f 17 3c d6 82 d4 3c b5 c4 e8 bc ab 2b b8 bd
       0.009220119 0.025941294 -0.02841411 -0.08992704
000020 ec 2f 04 3e 18 69 ce 3d f9 6b 5f be 47 59 c8 bc
       0.12908906 0.10078639 -0.21818532 -0.024456633
000030 92 9b 79 bd 7a 9c b1 3c b2 f1 19 be a1 f1 a6 bd
       -0.06093938 0.02168106 -0.15033606 -0.08151556
000040 35 bd 41 3d 5b 18 b3 bd e7 8c 9b bd 92 d7 5e 3d
       0.047299583 -0.0874488 -0.07595234 0.054404803
000050 16 9c 21 be cd 44 13 bd 3a ce 17 be cd d5 2a be
       -0.15782198 -0.035954285 -0.14824763 -0.16683121
000060 bf f4 45 be 74 27 8f 3d 1b c4 e2 3d d4 5d e5 3d
       -0.19331644 0.06989947 0.110725604 0.11199537
000070 a4 0f 72 3d 4f 7d 03 be 9f 61 09 be 24 4d 53 bc
       0.059096947 -0.1284077 -0.13416146 -0.01289681
000080 15 62 f9 3c 70 e5 aa bd a7 fd 45 bd 3e 3c b4 bd
       0.030442277 -0.08344543 -0.048337605 -0.08800553
000090 16 c1 0a be c6 43 4d 3e 11 94 fd 3d 23 f5 a2 3d
       -0.13550219 0.20045385 0.12381757 0.07956912
0000a0 b5 8b b3 bd 2d 1e 0a 3e 72 af 24 be d8 dd 0a be
       -0.087668814 0.13488074 -0.16082552 -0.13561189
0000b0 66 57 35 3c e0 d8 6b be b6 46 c5 bc 04 ab d2 3c
       0.011068201 -0.2303195 -0.02408157 0.025716312
0000c0 7a a3 a1 3d 8d 32 f8 bc c0 16 09 3e 48 9e 05 bc
       0.07892509 -0.030297542 0.13387585 -0.008155413
0000d0 8f fc e1 bd ec f1 19 3e cc 07 fc 3c d1 de 33 be
       -0.110345 0.15033692 0.030765437 -0.17565466
0000e0 df 9b e4 bd 8f ab 78 3e e1 60 dd bc 53 52 9b 3d
       -0.111625426 0.24284194 -0.027023735 0.075840615
0000f0 8b b4 72 be f1 04 af 3d 68 3d 41 be f5 c4 ab bd
       -0.23701684 0.085458644 -0.18871081 -0.08387176
000100 c3 5c 8e bd f5 e4 b2 bd 42 c7 4b be a4 f3 08 be
       -0.06951287 -0.08735076 -0.1990023 -0.13374192
000110 bb c1 8c be d3 31 1d 3e 37 47 0a 3e 16 34 8a 3d
       -0.27491555 0.15351038 0.13503729 0.06748216
000120 ab 77 ca bd fc 8b 97 3b a8 8f 5a bd 5e 43 0e bd
       -0.09886106 0.0046248417 -0.053359658 -0.034732215
000130 74 42 87 be 72 62 7f be 8e 3b 3a 3e 62 75 7f 3e
       -0.26417887 -0.24939898 0.18186781 0.24947122
000140 d8 7b 61 bd ea 64 b8 bd 21 6e 48 3d df 8a 45 3d
       -0.055049747 -0.09003623 0.048933152 0.04822814
000150 55 b3 d4 3d fd f4 1c 3e 51 c6 54 3e d9 02 78 3d
       0.10385767 0.1532783 0.20778777 0.06054959
000160 30 55 c9 bd 82 ec 66 3e 97 44 09 3e 3b bb 26 3c
       -0.09830701 0.22551158 0.13405071 0.010176475
000170 b3 bd 9d bd 9c 7d 62 3d a8 79 3d ba 61 b6 4a 3d
       -0.07702198 0.05529557 -0.0007227906 0.049490336
000180 ab d3 06 be 4d 2f 01 3d 7d ff 4f 3e 32 01 fc bc
       -0.13166682 0.03153925 0.20312305 -0.030762289
000190 8f ef db 3d 6e d3 0d be 69 84 5a 3d 7f b0 e1 3b
       0.107390516 -0.13850185 0.053348932 0.006887495
0001a0 1c f5 12 3d ee 81 01 bd 02 6d 11 3e d9 27 12 3e
       0.035878286 -0.03161805 0.1420174 0.14273013
0001b0 f1 d6 b1 bb 67 cc 6a 3d 7b 42 38 bd b8 00 7c 3d
       -0.0054272343 0.05732384 -0.044985276 0.061524123
0001c0 83 3f 11 3d c7 9a 39 3d 9a 89 d9 bd 28 17 ca 3c
       0.03546096 0.045313623 -0.106219485 0.024669245
0001d0 ca ed 56 3b b4 b1 8d 3c e2 40 b9 3c 5c 09 c5 bb
       0.0032795542 0.01729665 0.022613946 -0.0060130786
0001e0 91 de 75 3d db 58 cc 3d fb 83 ae bd 4c 79 52 bd
       0.06002671 0.09977885 -0.08521267 -0.05138521
0001f0 15 0e e3 bd ce 9c f1 bc 6a ad 02 3e 2f 90 55 3d
       -0.1108667 -0.029493716 0.12761465 0.052139457
000200 99 ac ee 3d 98 54 69 3d 7c 09 e4 bd b9 c4 bb bd
       0.11654014 0.05696544 -0.111346215 -0.09168381
000210 b5 13 53 be 84 da d7 bd ed 5c bd 3d 6f 07 28 bc
       -0.20612986 -0.105397254 0.0924624 -0.010255679
000220 19 a1 00 bd 32 4e af bd a9 6a 34 be c7 ae 03 be
       -0.031403635 -0.085598364 -0.17618813 -0.12859641
000230 54 56 b8 3c c2 88 62 3d 48 1c 92 3d 19 cb e4 3d
       0.022502102 0.055306204 0.071343005 0.1117155
000240 78 f9 bc 3d 75 c0 fb bd 45 4b bf bc 87 6c 03 be
       0.0922727 -0.12292568 -0.023351321 -0.12834369
000250 63 d8 99 bd 5c f2 e0 3d 23 1c 81 bd 72 32 3f bd
       -0.075119756 0.109837264 -0.06304195 -0.046678968
000260 c3 6b 0e bd 45 bd 62 3d 07 39 3c bd 97 7e 9e bd
       -0.03477074 0.055356283 -0.045952823 -0.07738989
000270 61 19 8c bd ce 33 94 3d 9a 5f 8f 3d 32 d3 0a bc
       -0.06840778 0.072364435 0.070006564 -0.008473204
000280 61 ea b1 be 24 13 ac be a4 89 f5 3e 3e 1c 92 be
       -0.3474913 -0.33608353 0.47956574 -0.28537172
000290 18 9b d4 3b cb 5c eb bd 67 5f 14 3c 3e 0a 3f 3f
       0.006488215 -0.11492308 0.009055949 0.74625003
0002a0 36 39 80 bd 32 45 33 be 06 9d 49 be ba 65 0d 3f
       -0.06260912 -0.17506865 -0.19688806 0.5523335
0002b0 fc e4 fa be 7b 54 d6 3c de f6 c8 be e9 fd 8d 3d
       -0.49002826 0.02616333 -0.39250845 0.06933195
0002c0 29 61 ae be 5e 47 f8 bd 74 9e 09 be 9f 16 21 be
       -0.34058502 -0.12122987 -0.13439351 -0.15731286
0002d0 c0 3e 1a be af 53 24 bf 94 e3 32 bd bb 98 d1 be
       -0.15063 -0.6419019 -0.043674067 -0.40936837
0002e0 af 32 a4 be 10 10 00 bd d6 df 3e be b5 1c d2 be
       -0.3206992 -0.03126532 -0.18640074 -0.41037527
0002f0 fd c7 60 be 13 fa 7b bd 5e bb 80 be 65 37 6b be
       -0.2195129 -0.061517786 -0.2514295 -0.2297035
000300 fb 81 c4 bc 39 47 af 3d 7c d2 45 bd f1 9b 8a bd
       -0.02398776 0.085585065 -0.048296437 -0.06768025
000310 90 b7 3d be 5a 7a fb 3d 8f 6e f9 3c 8b d0 c8 bc
       -0.18527055 0.12279196 0.030448226 -0.024513504
000320 31 c0 85 bc da 32 0d bd c2 6d 90 be 46 ba 4e be
       -0.016326996 -0.034472324 -0.2820874 -0.20188245
000330 ac 2a 74 be 72 a4 f4 bd 87 b7 3e be 3f 26 3d 3c
       -0.23844403 -0.11945428 -0.18624698 0.011544763
000340 a2 51 33 be cf 7f e8 3c bf 8c e5 3d eb 44 18 be
       -0.17511609 0.028381256 0.11208486 -0.1487004
000350 83 48 3f 3d 41 92 68 be b6 66 d8 bd 45 bb 13 bd
       0.046700012 -0.22712041 -0.105664656 -0.036067266
000360 55 8f c8 3c 14 b6 15 3e 50 bd c5 bb 97 dd e4 bd
       0.024482409 0.14620239 -0.0060345307 -0.111750774
000370 00 3f 25 be 0b 3f 13 be 1a 90 0b be 79 50 c8 bd
       -0.16137314 -0.14379518 -0.13629189 -0.09780974
000380 e0 53 0c be eb 2d db 3d e3 e9 58 3d 1f f7 1f bd
       -0.13703871 0.107021175 0.052957427 -0.039054032
000390 61 73 36 3d 00 cd 4b bd 28 71 20 3e 4c 12 3a be
       0.044543628 -0.04975605 0.15668166 -0.18171042
0003a0 b4 0b e8 3c 0e ab 03 3e f6 cd eb bc bb 2b 9f 3c
       0.028325893 0.12858221 -0.028784733 0.019430032
0003b0 ff ff a5 bd 49 f3 87 bd 1f ea 2a 3e d5 e1 ee 3d
       -0.08105468 -0.066382 0.16690873 0.11664168
0003c0 bb 00 a9 bd e3 23 7c 3d d1 53 33 bd 49 48 60 3e
       -0.082520925 0.06155766 -0.043781105 0.21902575
0003d0 36 8c e5 3c 07 96 3e 3e eb 67 8a bd b3 38 3d be
       0.02802096 0.18611918 -0.06758102 -0.1847866
0003e0 7d 2b ca bd d2 09 67 bd 71 62 42 3e 5a 81 89 3b
       -0.09871576 -0.05640585 0.18982865 0.004196328
0003f0 c0 a3 46 be 7e a9 1a bd 0a 4d 0c be 26 f3 64 3d
       -0.19398403 -0.037759297 -0.13701263 0.055895947

bias f4 [32]
000000 d5 2e e6 bd 6e 4b 97 3d ac 55 0f 3e ef d7 cd bd
       -0.11239401 0.07387434 0.13997525 -0.10050952
000010 45 7c 88 3d 74 c2 a3 3e dc a8 be bc 77 b1 0b 3e
       0.066643275 0.31984293 -0.023273878 0.13641916
000020 a1 cc 1e be 43 b8 2d be 14 9d d9 bd ec 0a 08 be
       -0.15507747 -0.16964822 -0.106256634 -0.13285416
000030 c8 96 a3 bd a1 31 70 3c 1e 34 f7 3d 8d 10 3c 3e
       -0.079877436 0.01466027 0.120704874 0.18365689
000040 11 eb 38 3e 49 4e 6d 3d 36 af 13 3e 98 ad f3 3b
       0.1805842 0.057935987 0.14422306 0.0074364655
000050 f4 75 32 3e 2e 3a 2c 3e d1 11 08 3d ec 28 b4 3c
       0.17427808 0.16819069 0.033220116 0.02199217
000060 22 4e 2d 3e 3f 36 ae bd de 97 36 bd 1a ec 14 be
       0.16924337 -0.0850644 -0.044578426 -0.1454319
000070 2f af 66 bd 0e 0e 23 3e 9d eb 07 be 97 22 61 3e
       -0.05631941 0.1592333 -0.13273473 0.21985851
